…
I1116 20:34:01.538501 15467 net.cpp:325] The NetState phase (0) differed from the phase (1) specified by a rule in layer accuracy
I1116 20:34:01.538741 15467 net.cpp:61] Initializing net from parameters: 
name: "CaffeNet"
state {
  phase: TRAIN
  level: 0
  stage: ""
}
layer {
  name: "data"
  type: "Data"
  top: "data"
  top: "label"
  include {
    phase: TRAIN
  }
  transform_param {
    mirror: true
    crop_size: 227
    mean_file: "/home/public/ImageNet12/imagenet_mean.binaryproto"
  }
  data_param {
    source: "/home/public/ImageNet12/ilsvrc12_train_lmdb"
    batch_size: 256
    backend: LMDB
  }
}
layer {
  name: "conv1"
  type: "Convolution"
  bottom: "data"
  top: "conv1"
  param {
    lr_mult: 1
    decay_mult: 0
    breadth_decay_mult: 0
    kernel_shape_decay_mult: 0.866
    special_shape_decay_mult: 0.866
  }
  param {
    lr_mult: 2
    decay_mult: 0
  }
  connectivity_mode: DISCONNECTED_GRPWISE
  convolution_param {
    num_output: 96
    kernel_size: 11
    stride: 4
    weight_filler {
      type: "gaussian"
      std: 0.01
    }
    bias_filler {
      type: "constant"
      value: 0
    }
  }
}
layer {
  name: "relu1"
  type: "ReLU"
  bottom: "conv1"
  top: "conv1"
}
layer {
  name: "pool1"
  type: "Pooling"
  bottom: "conv1"
  top: "pool1"
  pooling_param {
    pool: MAX
    kernel_size: 3
    stride: 2
  }
}
layer {
  name: "norm1"
  type: "LRN"
  bottom: "pool1"
  top: "norm1"
  lrn_param {
    local_size: 5
    alpha: 0.0001
    beta: 0.75
  }
}
layer {
  name: "conv2"
  type: "Convolution"
  bottom: "norm1"
  top: "conv2"
  param {
    lr_mult: 1
    decay_mult: 0
    breadth_decay_mult: 1
    kernel_shape_decay_mult: 1
    special_shape_decay_mult: 1
  }
  param {
    lr_mult: 2
    decay_mult: 0
  }
  connectivity_mode: DISCONNECTED_GRPWISE
  convolution_param {
    num_output: 256
    pad: 2
    kernel_size: 5
    group: 2
    weight_filler {
      type: "gaussian"
      std: 0.01
    }
    bias_filler {
      type: "constant"
      value: 1
    }
  }
}
layer {
  name: "relu2"
  type: "ReLU"
  bottom: "conv2"
  top: "conv2"
}
layer {
  name: "pool2"
  type: "Pooling"
  bottom: "conv2"
  top: "pool2"
  pooling_param {
    pool: MAX
    kernel_size: 3
    stride: 2
  }
}
layer {
  name: "norm2"
  type: "LRN"
  bottom: "pool2"
  top: "norm2"
  lrn_param {
    local_size: 5
    alpha: 0.0001
    beta: 0.75
  }
}
layer {
  name: "conv3"
  type: "Convolution"
  bottom: "norm2"
  top: "conv3"
  param {
    lr_mult: 1
    decay_mult: 0
    breadth_decay_mult: 1
    kernel_shape_decay_mult: 1.7321
    special_shape_decay_mult: 1
  }
  param {
    lr_mult: 2
    decay_mult: 0
  }
  connectivity_mode: DISCONNECTED_GRPWISE
  convolution_param {
    num_output: 384
    pad: 1
    kernel_size: 3
    weight_filler {
      type: "gaussian"
      std: 0.01
    }
    bias_filler {
      type: "constant"
      value: 0
    }
  }
}
layer {
  name: "relu3"
  type: "ReLU"
  bottom: "conv3"
  top: "conv3"
}
layer {
  name: "conv4"
  type: "Convolution"
  bottom: "conv3"
  top: "conv4"
  param {
    lr_mult: 1
    decay_mult: 0
    breadth_decay_mult: 1
    kernel_shape_decay_mult: 1.2247
    special_shape_decay_mult: 1
  }
  param {
    lr_mult: 2
    decay_mult: 0
  }
  connectivity_mode: DISCONNECTED_GRPWISE
  convolution_param {
    num_output: 384
    pad: 1
    kernel_size: 3
    group: 2
    weight_filler {
      type: "gaussian"
      std: 0.01
    }
    bias_filler {
      type: "constant"
      value: 1
    }
  }
}
layer {
  name: "relu4"
  type: "ReLU"
  bottom: "conv4"
  top: "conv4"
}
layer {
  name: "conv5"
  type: "Convolution"
  bottom: "conv4"
  top: "conv5"
  param {
    lr_mult: 1
    decay_mult: 0
    breadth_decay_mult: 0
    kernel_shape_decay_mult: 1
    special_shape_decay_mult: 1
  }
  param {
    lr_mult: 2
    decay_mult: 0
  }
  connectivity_mode: DISCONNECTED_GRPWISE
  convolution_param {
    num_output: 256
    pad: 1
    kernel_size: 3
    group: 2
    weight_filler {
      type: "gaussian"
      std: 0.01
    }
    bias_filler {
      type: "constant"
      value: 1
    }
  }
}
layer {
  name: "relu5"
  type: "ReLU"
  bottom: "conv5"
  top: "conv5"
}
layer {
  name: "pool5"
  type: "Pooling"
  bottom: "conv5"
  top: "pool5"
  pooling_param {
    pool: MAX
    kernel_size: 3
    stride: 2
  }
}
layer {
  name: "fc6"
  type: "InnerProduct"
  bottom: "pool5"
  top: "fc6"
  param {
    lr_mult: 1
    decay_mult: 1
  }
  param {
    lr_mult: 2
    decay_mult: 0
  }
  inner_product_param {
    num_output: 4096
    weight_filler {
      type: "gaussian"
      std: 0.005
    }
    bias_filler {
      type: "constant"
      value: 1
    }
  }
}
layer {
  name: "relu6"
  type: "ReLU"
  bottom: "fc6"
  top: "fc6"
}
layer {
  name: "drop6"
  type: "Dropout"
  bottom: "fc6"
  top: "fc6"
  dropout_param {
    dropout_ratio: 0.5
  }
}
layer {
  name: "fc7"
  type: "InnerProduct"
  bottom: "fc6"
  top: "fc7"
  param {
    lr_mult: 1
    decay_mult: 1
  }
  param {
    lr_mult: 2
    decay_mult: 0
  }
  inner_product_param {
    num_output: 4096
    weight_filler {
      type: "gaussian"
      std: 0.005
    }
    bias_filler {
      type: "constant"
      value: 1
    }
  }
}
layer {
  name: "relu7"
  type: "ReLU"
  bottom: "fc7"
  top: "fc7"
}
layer {
  name: "drop7"
  type: "Dropout"
  bottom: "fc7"
  top: "fc7"
  dropout_param {
    dropout_ratio: 0.5
  }
}
layer {
  name: "fc8"
  type: "InnerProduct"
  bottom: "fc7"
  top: "fc8"
  param {
    lr_mult: 1
    decay_mult: 1
  }
  param {
    lr_mult: 2
    decay_mult: 0
  }
  inner_product_param {
    num_output: 1000
    weight_filler {
      type: "gaussian"
      std: 0.01
    }
    bias_filler {
      type: "constant"
      value: 0
    }
  }
}
layer {
  name: "loss"
  type: "SoftmaxWithLoss"
  bottom: "fc8"
  bottom: "label"
  top: "loss"
}
I1116 20:34:01.538868 15467 layer_factory.hpp:77] Creating layer data
I1116 20:34:01.539517 15467 net.cpp:103] Creating Layer data
I1116 20:34:01.539538 15467 net.cpp:411] data -> data
I1116 20:34:01.539569 15467 net.cpp:411] data -> label
I1116 20:34:01.539597 15467 data_transformer.cpp:25] Loading mean file from: /home/public/ImageNet12/imagenet_mean.binaryproto
I1116 20:34:01.541174 15473 db_lmdb.cpp:35] Opened lmdb /home/public/ImageNet12/ilsvrc12_train_lmdb
I1116 20:34:05.742815 15467 data_layer.cpp:41] output data size: 256,3,227,227
I1116 20:34:06.025657 15467 net.cpp:153] Setting up data
I1116 20:34:06.025725 15467 net.cpp:160] Top shape: 256 3 227 227 (39574272)
I1116 20:34:06.025741 15467 net.cpp:160] Top shape: 256 (256)
I1116 20:34:06.025750 15467 net.cpp:168] Memory required for data: 158298112
I1116 20:34:06.025775 15467 layer_factory.hpp:77] Creating layer conv1
I1116 20:34:06.025825 15467 net.cpp:103] Creating Layer conv1
I1116 20:34:06.025840 15467 net.cpp:437] conv1 <- data
I1116 20:34:06.025863 15467 net.cpp:411] conv1 -> conv1
I1116 20:34:07.576841 15467 net.cpp:153] Setting up conv1
I1116 20:34:07.576910 15467 net.cpp:160] Top shape: 256 96 55 55 (74342400)
I1116 20:34:07.576925 15467 net.cpp:168] Memory required for data: 455667712
I1116 20:34:07.576992 15467 layer_factory.hpp:77] Creating layer relu1
I1116 20:34:07.577028 15467 net.cpp:103] Creating Layer relu1
I1116 20:34:07.577045 15467 net.cpp:437] relu1 <- conv1
I1116 20:34:07.577065 15467 net.cpp:398] relu1 -> conv1 (in-place)
I1116 20:34:07.577371 15467 net.cpp:153] Setting up relu1
I1116 20:34:07.577409 15467 net.cpp:160] Top shape: 256 96 55 55 (74342400)
I1116 20:34:07.577424 15467 net.cpp:168] Memory required for data: 753037312
I1116 20:34:07.577441 15467 layer_factory.hpp:77] Creating layer pool1
I1116 20:34:07.577463 15467 net.cpp:103] Creating Layer pool1
I1116 20:34:07.577479 15467 net.cpp:437] pool1 <- conv1
I1116 20:34:07.577497 15467 net.cpp:411] pool1 -> pool1
I1116 20:34:07.668118 15467 net.cpp:153] Setting up pool1
I1116 20:34:07.668189 15467 net.cpp:160] Top shape: 256 96 27 27 (17915904)
I1116 20:34:07.668202 15467 net.cpp:168] Memory required for data: 824700928
I1116 20:34:07.668218 15467 layer_factory.hpp:77] Creating layer norm1
I1116 20:34:07.668264 15467 net.cpp:103] Creating Layer norm1
I1116 20:34:07.668280 15467 net.cpp:437] norm1 <- pool1
I1116 20:34:07.668304 15467 net.cpp:411] norm1 -> norm1
I1116 20:34:07.760118 15467 net.cpp:153] Setting up norm1
I1116 20:34:07.760196 15467 net.cpp:160] Top shape: 256 96 27 27 (17915904)
I1116 20:34:07.760208 15467 net.cpp:168] Memory required for data: 896364544
I1116 20:34:07.760223 15467 layer_factory.hpp:77] Creating layer conv2
I1116 20:34:07.760267 15467 net.cpp:103] Creating Layer conv2
I1116 20:34:07.760282 15467 net.cpp:437] conv2 <- norm1
I1116 20:34:07.760304 15467 net.cpp:411] conv2 -> conv2
I1116 20:34:07.899132 15467 net.cpp:153] Setting up conv2
I1116 20:34:07.899195 15467 net.cpp:160] Top shape: 256 256 27 27 (47775744)
I1116 20:34:07.899209 15467 net.cpp:168] Memory required for data: 1087467520
I1116 20:34:07.899253 15467 layer_factory.hpp:77] Creating layer relu2
I1116 20:34:07.899276 15467 net.cpp:103] Creating Layer relu2
I1116 20:34:07.899291 15467 net.cpp:437] relu2 <- conv2
I1116 20:34:07.899312 15467 net.cpp:398] relu2 -> conv2 (in-place)
I1116 20:34:07.899610 15467 net.cpp:153] Setting up relu2
I1116 20:34:07.899632 15467 net.cpp:160] Top shape: 256 256 27 27 (47775744)
I1116 20:34:07.899646 15467 net.cpp:168] Memory required for data: 1278570496
I1116 20:34:07.899658 15467 layer_factory.hpp:77] Creating layer pool2
I1116 20:34:07.899677 15467 net.cpp:103] Creating Layer pool2
I1116 20:34:07.899693 15467 net.cpp:437] pool2 <- conv2
I1116 20:34:07.899711 15467 net.cpp:411] pool2 -> pool2
I1116 20:34:07.975203 15467 net.cpp:153] Setting up pool2
I1116 20:34:07.975271 15467 net.cpp:160] Top shape: 256 256 13 13 (11075584)
I1116 20:34:07.975284 15467 net.cpp:168] Memory required for data: 1322872832
I1116 20:34:07.975301 15467 layer_factory.hpp:77] Creating layer norm2
I1116 20:34:07.975342 15467 net.cpp:103] Creating Layer norm2
I1116 20:34:07.975366 15467 net.cpp:437] norm2 <- pool2
I1116 20:34:07.975389 15467 net.cpp:411] norm2 -> norm2
I1116 20:34:08.051493 15467 net.cpp:153] Setting up norm2
I1116 20:34:08.051554 15467 net.cpp:160] Top shape: 256 256 13 13 (11075584)
I1116 20:34:08.051565 15467 net.cpp:168] Memory required for data: 1367175168
I1116 20:34:08.051580 15467 layer_factory.hpp:77] Creating layer conv3
I1116 20:34:08.051616 15467 net.cpp:103] Creating Layer conv3
I1116 20:34:08.051632 15467 net.cpp:437] conv3 <- norm2
I1116 20:34:08.051657 15467 net.cpp:411] conv3 -> conv3
I1116 20:34:08.130584 15467 net.cpp:153] Setting up conv3
I1116 20:34:08.130642 15467 net.cpp:160] Top shape: 256 384 13 13 (16613376)
I1116 20:34:08.130656 15467 net.cpp:168] Memory required for data: 1433628672
I1116 20:34:08.130703 15467 layer_factory.hpp:77] Creating layer relu3
I1116 20:34:08.130733 15467 net.cpp:103] Creating Layer relu3
I1116 20:34:08.130748 15467 net.cpp:437] relu3 <- conv3
I1116 20:34:08.130769 15467 net.cpp:398] relu3 -> conv3 (in-place)
I1116 20:34:08.131433 15467 net.cpp:153] Setting up relu3
I1116 20:34:08.131456 15467 net.cpp:160] Top shape: 256 384 13 13 (16613376)
I1116 20:34:08.131469 15467 net.cpp:168] Memory required for data: 1500082176
I1116 20:34:08.131481 15467 layer_factory.hpp:77] Creating layer conv4
I1116 20:34:08.131520 15467 net.cpp:103] Creating Layer conv4
I1116 20:34:08.131537 15467 net.cpp:437] conv4 <- conv3
I1116 20:34:08.131570 15467 net.cpp:411] conv4 -> conv4
I1116 20:34:08.196830 15467 net.cpp:153] Setting up conv4
I1116 20:34:08.196893 15467 net.cpp:160] Top shape: 256 384 13 13 (16613376)
I1116 20:34:08.196907 15467 net.cpp:168] Memory required for data: 1566535680
I1116 20:34:08.196943 15467 layer_factory.hpp:77] Creating layer relu4
I1116 20:34:08.196972 15467 net.cpp:103] Creating Layer relu4
I1116 20:34:08.196990 15467 net.cpp:437] relu4 <- conv4
I1116 20:34:08.197010 15467 net.cpp:398] relu4 -> conv4 (in-place)
I1116 20:34:08.197698 15467 net.cpp:153] Setting up relu4
I1116 20:34:08.197726 15467 net.cpp:160] Top shape: 256 384 13 13 (16613376)
I1116 20:34:08.197739 15467 net.cpp:168] Memory required for data: 1632989184
I1116 20:34:08.197753 15467 layer_factory.hpp:77] Creating layer conv5
I1116 20:34:08.197787 15467 net.cpp:103] Creating Layer conv5
I1116 20:34:08.197803 15467 net.cpp:437] conv5 <- conv4
I1116 20:34:08.197826 15467 net.cpp:411] conv5 -> conv5
I1116 20:34:08.243407 15467 net.cpp:153] Setting up conv5
I1116 20:34:08.243472 15467 net.cpp:160] Top shape: 256 256 13 13 (11075584)
I1116 20:34:08.243485 15467 net.cpp:168] Memory required for data: 1677291520
I1116 20:34:08.243536 15467 layer_factory.hpp:77] Creating layer relu5
I1116 20:34:08.243571 15467 net.cpp:103] Creating Layer relu5
I1116 20:34:08.243587 15467 net.cpp:437] relu5 <- conv5
I1116 20:34:08.243609 15467 net.cpp:398] relu5 -> conv5 (in-place)
I1116 20:34:08.243939 15467 net.cpp:153] Setting up relu5
I1116 20:34:08.243968 15467 net.cpp:160] Top shape: 256 256 13 13 (11075584)
I1116 20:34:08.243981 15467 net.cpp:168] Memory required for data: 1721593856
I1116 20:34:08.243995 15467 layer_factory.hpp:77] Creating layer pool5
I1116 20:34:08.244016 15467 net.cpp:103] Creating Layer pool5
I1116 20:34:08.244031 15467 net.cpp:437] pool5 <- conv5
I1116 20:34:08.244055 15467 net.cpp:411] pool5 -> pool5
I1116 20:34:08.256448 15467 net.cpp:153] Setting up pool5
I1116 20:34:08.256505 15467 net.cpp:160] Top shape: 256 256 6 6 (2359296)
I1116 20:34:08.256517 15467 net.cpp:168] Memory required for data: 1731031040
I1116 20:34:08.256536 15467 layer_factory.hpp:77] Creating layer fc6
I1116 20:34:08.256570 15467 net.cpp:103] Creating Layer fc6
I1116 20:34:08.256587 15467 net.cpp:437] fc6 <- pool5
I1116 20:34:08.256613 15467 net.cpp:411] fc6 -> fc6
I1116 20:34:08.913679 15467 net.cpp:153] Setting up fc6
I1116 20:34:08.913738 15467 net.cpp:160] Top shape: 256 4096 (1048576)
I1116 20:34:08.913748 15467 net.cpp:168] Memory required for data: 1735225344
I1116 20:34:08.913784 15467 layer_factory.hpp:77] Creating layer relu6
I1116 20:34:08.913805 15467 net.cpp:103] Creating Layer relu6
I1116 20:34:08.913815 15467 net.cpp:437] relu6 <- fc6
I1116 20:34:08.913830 15467 net.cpp:398] relu6 -> fc6 (in-place)
I1116 20:34:08.914306 15467 net.cpp:153] Setting up relu6
I1116 20:34:08.914329 15467 net.cpp:160] Top shape: 256 4096 (1048576)
I1116 20:34:08.914336 15467 net.cpp:168] Memory required for data: 1739419648
I1116 20:34:08.914345 15467 layer_factory.hpp:77] Creating layer drop6
I1116 20:34:08.914357 15467 net.cpp:103] Creating Layer drop6
I1116 20:34:08.914364 15467 net.cpp:437] drop6 <- fc6
I1116 20:34:08.914376 15467 net.cpp:398] drop6 -> fc6 (in-place)
I1116 20:34:08.916942 15467 net.cpp:153] Setting up drop6
I1116 20:34:08.916965 15467 net.cpp:160] Top shape: 256 4096 (1048576)
I1116 20:34:08.916971 15467 net.cpp:168] Memory required for data: 1743613952
I1116 20:34:08.916980 15467 layer_factory.hpp:77] Creating layer fc7
I1116 20:34:08.916996 15467 net.cpp:103] Creating Layer fc7
I1116 20:34:08.917003 15467 net.cpp:437] fc7 <- fc6
I1116 20:34:08.917016 15467 net.cpp:411] fc7 -> fc7
I1116 20:34:09.210413 15467 net.cpp:153] Setting up fc7
I1116 20:34:09.210469 15467 net.cpp:160] Top shape: 256 4096 (1048576)
I1116 20:34:09.210477 15467 net.cpp:168] Memory required for data: 1747808256
I1116 20:34:09.210515 15467 layer_factory.hpp:77] Creating layer relu7
I1116 20:34:09.210530 15467 net.cpp:103] Creating Layer relu7
I1116 20:34:09.210541 15467 net.cpp:437] relu7 <- fc7
I1116 20:34:09.210566 15467 net.cpp:398] relu7 -> fc7 (in-place)
I1116 20:34:09.210906 15467 net.cpp:153] Setting up relu7
I1116 20:34:09.210925 15467 net.cpp:160] Top shape: 256 4096 (1048576)
I1116 20:34:09.210933 15467 net.cpp:168] Memory required for data: 1752002560
I1116 20:34:09.210940 15467 layer_factory.hpp:77] Creating layer drop7
I1116 20:34:09.210953 15467 net.cpp:103] Creating Layer drop7
I1116 20:34:09.210963 15467 net.cpp:437] drop7 <- fc7
I1116 20:34:09.210979 15467 net.cpp:398] drop7 -> fc7 (in-place)
I1116 20:34:09.213624 15467 net.cpp:153] Setting up drop7
I1116 20:34:09.213661 15467 net.cpp:160] Top shape: 256 4096 (1048576)
I1116 20:34:09.213670 15467 net.cpp:168] Memory required for data: 1756196864
I1116 20:34:09.213681 15467 layer_factory.hpp:77] Creating layer fc8
I1116 20:34:09.213701 15467 net.cpp:103] Creating Layer fc8
I1116 20:34:09.213708 15467 net.cpp:437] fc8 <- fc7
I1116 20:34:09.213721 15467 net.cpp:411] fc8 -> fc8
I1116 20:34:09.286206 15467 net.cpp:153] Setting up fc8
I1116 20:34:09.286268 15467 net.cpp:160] Top shape: 256 1000 (256000)
I1116 20:34:09.286276 15467 net.cpp:168] Memory required for data: 1757220864
I1116 20:34:09.286301 15467 layer_factory.hpp:77] Creating layer loss
I1116 20:34:09.286319 15467 net.cpp:103] Creating Layer loss
I1116 20:34:09.286334 15467 net.cpp:437] loss <- fc8
I1116 20:34:09.286345 15467 net.cpp:437] loss <- label
I1116 20:34:09.286361 15467 net.cpp:411] loss -> loss
I1116 20:34:09.286396 15467 layer_factory.hpp:77] Creating layer loss
…
I1116 20:34:09.289567 15467 net.cpp:325] The NetState phase (1) differed from the phase (0) specified by a rule in layer data
I1116 20:34:09.289827 15467 net.cpp:61] Initializing net from parameters: 
name: "CaffeNet"
state {
  phase: TEST
}
layer {
  name: "data"
  type: "Data"
  top: "data"
  top: "label"
  include {
    phase: TEST
  }
  transform_param {
    mirror: false
    crop_size: 227
    mean_file: "/home/public/ImageNet12/imagenet_mean.binaryproto"
  }
  data_param {
    source: "/home/public/ImageNet12/ilsvrc12_val_lmdb"
    batch_size: 50
    backend: LMDB
  }
}
layer {
  name: "conv1"
  type: "Convolution"
  bottom: "data"
  top: "conv1"
  param {
    lr_mult: 1
    decay_mult: 0
    breadth_decay_mult: 0
    kernel_shape_decay_mult: 0.866
    special_shape_decay_mult: 0.866
  }
  param {
    lr_mult: 2
    decay_mult: 0
  }
  connectivity_mode: DISCONNECTED_GRPWISE
  convolution_param {
    num_output: 96
    kernel_size: 11
    stride: 4
    weight_filler {
      type: "gaussian"
      std: 0.01
    }
    bias_filler {
      type: "constant"
      value: 0
    }
  }
}
layer {
  name: "relu1"
  type: "ReLU"
  bottom: "conv1"
  top: "conv1"
}
layer {
  name: "pool1"
  type: "Pooling"
  bottom: "conv1"
  top: "pool1"
  pooling_param {
    pool: MAX
    kernel_size: 3
    stride: 2
  }
}
layer {
  name: "norm1"
  type: "LRN"
  bottom: "pool1"
  top: "norm1"
  lrn_param {
    local_size: 5
    alpha: 0.0001
    beta: 0.75
  }
}
layer {
  name: "conv2"
  type: "Convolution"
  bottom: "norm1"
  top: "conv2"
  param {
    lr_mult: 1
    decay_mult: 0
    breadth_decay_mult: 1
    kernel_shape_decay_mult: 1
    special_shape_decay_mult: 1
  }
  param {
    lr_mult: 2
    decay_mult: 0
  }
  connectivity_mode: DISCONNECTED_GRPWISE
  convolution_param {
    num_output: 256
    pad: 2
    kernel_size: 5
    group: 2
    weight_filler {
      type: "gaussian"
      std: 0.01
    }
    bias_filler {
      type: "constant"
      value: 1
    }
  }
}
layer {
  name: "relu2"
  type: "ReLU"
  bottom: "conv2"
  top: "conv2"
}
layer {
  name: "pool2"
  type: "Pooling"
  bottom: "conv2"
  top: "pool2"
  pooling_param {
    pool: MAX
    kernel_size: 3
    stride: 2
  }
}
layer {
  name: "norm2"
  type: "LRN"
  bottom: "pool2"
  top: "norm2"
  lrn_param {
    local_size: 5
    alpha: 0.0001
    beta: 0.75
  }
}
layer {
  name: "conv3"
  type: "Convolution"
  bottom: "norm2"
  top: "conv3"
  param {
    lr_mult: 1
    decay_mult: 0
    breadth_decay_mult: 1
    kernel_shape_decay_mult: 1.7321
    special_shape_decay_mult: 1
  }
  param {
    lr_mult: 2
    decay_mult: 0
  }
  connectivity_mode: DISCONNECTED_GRPWISE
  convolution_param {
    num_output: 384
    pad: 1
    kernel_size: 3
    weight_filler {
      type: "gaussian"
      std: 0.01
    }
    bias_filler {
      type: "constant"
      value: 0
    }
  }
}
layer {
  name: "relu3"
  type: "ReLU"
  bottom: "conv3"
  top: "conv3"
}
layer {
  name: "conv4"
  type: "Convolution"
  bottom: "conv3"
  top: "conv4"
  param {
    lr_mult: 1
    decay_mult: 0
    breadth_decay_mult: 1
    kernel_shape_decay_mult: 1.2247
    special_shape_decay_mult: 1
  }
  param {
    lr_mult: 2
    decay_mult: 0
  }
  connectivity_mode: DISCONNECTED_GRPWISE
  convolution_param {
    num_output: 384
    pad: 1
    kernel_size: 3
    group: 2
    weight_filler {
      type: "gaussian"
      std: 0.01
    }
    bias_filler {
      type: "constant"
      value: 1
    }
  }
}
layer {
  name: "relu4"
  type: "ReLU"
  bottom: "conv4"
  top: "conv4"
}
layer {
  name: "conv5"
  type: "Convolution"
  bottom: "conv4"
  top: "conv5"
  param {
    lr_mult: 1
    decay_mult: 0
    breadth_decay_mult: 0
    kernel_shape_decay_mult: 1
    special_shape_decay_mult: 1
  }
  param {
    lr_mult: 2
    decay_mult: 0
  }
  connectivity_mode: DISCONNECTED_GRPWISE
  convolution_param {
    num_output: 256
    pad: 1
    kernel_size: 3
    group: 2
    weight_filler {
      type: "gaussian"
      std: 0.01
    }
    bias_filler {
      type: "constant"
      value: 1
    }
  }
}
layer {
  name: "relu5"
  type: "ReLU"
  bottom: "conv5"
  top: "conv5"
}
layer {
  name: "pool5"
  type: "Pooling"
  bottom: "conv5"
  top: "pool5"
  pooling_param {
    pool: MAX
    kernel_size: 3
    stride: 2
  }
}
layer {
  name: "fc6"
  type: "InnerProduct"
  bottom: "pool5"
  top: "fc6"
  param {
    lr_mult: 1
    decay_mult: 1
  }
  param {
    lr_mult: 2
    decay_mult: 0
  }
  inner_product_param {
    num_output: 4096
    weight_filler {
      type: "gaussian"
      std: 0.005
    }
    bias_filler {
      type: "constant"
      value: 1
    }
  }
}
layer {
  name: "relu6"
  type: "ReLU"
  bottom: "fc6"
  top: "fc6"
}
layer {
  name: "drop6"
  type: "Dropout"
  bottom: "fc6"
  top: "fc6"
  dropout_param {
    dropout_ratio: 0.5
  }
}
layer {
  name: "fc7"
  type: "InnerProduct"
  bottom: "fc6"
  top: "fc7"
  param {
    lr_mult: 1
    decay_mult: 1
  }
  param {
    lr_mult: 2
    decay_mult: 0
  }
  inner_product_param {
    num_output: 4096
    weight_filler {
      type: "gaussian"
      std: 0.005
    }
    bias_filler {
      type: "constant"
      value: 1
    }
  }
}
layer {
  name: "relu7"
  type: "ReLU"
  bottom: "fc7"
  top: "fc7"
}
layer {
  name: "drop7"
  type: "Dropout"
  bottom: "fc7"
  top: "fc7"
  dropout_param {
    dropout_ratio: 0.5
  }
}
layer {
  name: "fc8"
  type: "InnerProduct"
  bottom: "fc7"
  top: "fc8"
  param {
    lr_mult: 1
    decay_mult: 1
  }
  param {
    lr_mult: 2
    decay_mult: 0
  }
  inner_product_param {
    num_output: 1000
    weight_filler {
      type: "gaussian"
      std: 0.01
    }
    bias_filler {
      type: "constant"
      value: 0
    }
  }
}
layer {
  name: "accuracy"
  type: "Accuracy"
  bottom: "fc8"
  bottom: "label"
  top: "accuracy"
  include {
    phase: TEST
  }
}
layer {
  name: "loss"
  type: "SoftmaxWithLoss"
  bottom: "fc8"
  bottom: "label"
  top: "loss"
}
I1116 20:34:09.289979 15467 layer_factory.hpp:77] Creating layer data
I1116 20:34:09.290115 15467 net.cpp:103] Creating Layer data
I1116 20:34:09.290133 15467 net.cpp:411] data -> data
I1116 20:34:09.290170 15467 net.cpp:411] data -> label
I1116 20:34:09.290189 15467 data_transformer.cpp:25] Loading mean file from: /home/public/ImageNet12/imagenet_mean.binaryproto
I1116 20:34:09.291378 15475 db_lmdb.cpp:35] Opened lmdb /home/public/ImageNet12/ilsvrc12_val_lmdb
I1116 20:34:09.374949 15467 data_layer.cpp:41] output data size: 50,3,227,227
I1116 20:34:09.438227 15467 net.cpp:153] Setting up data
I1116 20:34:09.438283 15467 net.cpp:160] Top shape: 50 3 227 227 (7729350)
I1116 20:34:09.438294 15467 net.cpp:160] Top shape: 50 (50)
I1116 20:34:09.438302 15467 net.cpp:168] Memory required for data: 30917600
I1116 20:34:09.438313 15467 layer_factory.hpp:77] Creating layer label_data_1_split
I1116 20:34:09.438333 15467 net.cpp:103] Creating Layer label_data_1_split
I1116 20:34:09.438343 15467 net.cpp:437] label_data_1_split <- label
I1116 20:34:09.438355 15467 net.cpp:411] label_data_1_split -> label_data_1_split_0
I1116 20:34:09.438374 15467 net.cpp:411] label_data_1_split -> label_data_1_split_1
I1116 20:34:09.438649 15467 net.cpp:153] Setting up label_data_1_split
I1116 20:34:09.438702 15467 net.cpp:160] Top shape: 50 (50)
I1116 20:34:09.438712 15467 net.cpp:160] Top shape: 50 (50)
I1116 20:34:09.438719 15467 net.cpp:168] Memory required for data: 30918000
I1116 20:34:09.438730 15467 layer_factory.hpp:77] Creating layer conv1
I1116 20:34:09.438766 15467 net.cpp:103] Creating Layer conv1
I1116 20:34:09.438776 15467 net.cpp:437] conv1 <- data
I1116 20:34:09.438794 15467 net.cpp:411] conv1 -> conv1
I1116 20:34:09.492765 15467 net.cpp:153] Setting up conv1
I1116 20:34:09.492805 15467 net.cpp:160] Top shape: 50 96 55 55 (14520000)
I1116 20:34:09.492813 15467 net.cpp:168] Memory required for data: 88998000
I1116 20:34:09.492843 15467 layer_factory.hpp:77] Creating layer relu1
I1116 20:34:09.492858 15467 net.cpp:103] Creating Layer relu1
I1116 20:34:09.492867 15467 net.cpp:437] relu1 <- conv1
I1116 20:34:09.492878 15467 net.cpp:398] relu1 -> conv1 (in-place)
I1116 20:34:09.493155 15467 net.cpp:153] Setting up relu1
I1116 20:34:09.493172 15467 net.cpp:160] Top shape: 50 96 55 55 (14520000)
I1116 20:34:09.493180 15467 net.cpp:168] Memory required for data: 147078000
I1116 20:34:09.493188 15467 layer_factory.hpp:77] Creating layer pool1
I1116 20:34:09.493203 15467 net.cpp:103] Creating Layer pool1
I1116 20:34:09.493221 15467 net.cpp:437] pool1 <- conv1
I1116 20:34:09.493247 15467 net.cpp:411] pool1 -> pool1
I1116 20:34:09.521836 15467 net.cpp:153] Setting up pool1
I1116 20:34:09.521900 15467 net.cpp:160] Top shape: 50 96 27 27 (3499200)
I1116 20:34:09.521909 15467 net.cpp:168] Memory required for data: 161074800
I1116 20:34:09.521921 15467 layer_factory.hpp:77] Creating layer norm1
I1116 20:34:09.521941 15467 net.cpp:103] Creating Layer norm1
I1116 20:34:09.521951 15467 net.cpp:437] norm1 <- pool1
I1116 20:34:09.521967 15467 net.cpp:411] norm1 -> norm1
I1116 20:34:09.547685 15467 net.cpp:153] Setting up norm1
I1116 20:34:09.547749 15467 net.cpp:160] Top shape: 50 96 27 27 (3499200)
I1116 20:34:09.547760 15467 net.cpp:168] Memory required for data: 175071600
I1116 20:34:09.547772 15467 layer_factory.hpp:77] Creating layer conv2
I1116 20:34:09.547816 15467 net.cpp:103] Creating Layer conv2
I1116 20:34:09.547829 15467 net.cpp:437] conv2 <- norm1
I1116 20:34:09.547847 15467 net.cpp:411] conv2 -> conv2
I1116 20:34:09.595265 15467 net.cpp:153] Setting up conv2
I1116 20:34:09.595319 15467 net.cpp:160] Top shape: 50 256 27 27 (9331200)
I1116 20:34:09.595329 15467 net.cpp:168] Memory required for data: 212396400
I1116 20:34:09.595379 15467 layer_factory.hpp:77] Creating layer relu2
I1116 20:34:09.595396 15467 net.cpp:103] Creating Layer relu2
I1116 20:34:09.595407 15467 net.cpp:437] relu2 <- conv2
I1116 20:34:09.595420 15467 net.cpp:398] relu2 -> conv2 (in-place)
I1116 20:34:09.595731 15467 net.cpp:153] Setting up relu2
I1116 20:34:09.595749 15467 net.cpp:160] Top shape: 50 256 27 27 (9331200)
I1116 20:34:09.595757 15467 net.cpp:168] Memory required for data: 249721200
I1116 20:34:09.595765 15467 layer_factory.hpp:77] Creating layer pool2
I1116 20:34:09.595782 15467 net.cpp:103] Creating Layer pool2
I1116 20:34:09.595804 15467 net.cpp:437] pool2 <- conv2
I1116 20:34:09.595818 15467 net.cpp:411] pool2 -> pool2
I1116 20:34:09.606499 15467 net.cpp:153] Setting up pool2
I1116 20:34:09.606564 15467 net.cpp:160] Top shape: 50 256 13 13 (2163200)
I1116 20:34:09.606572 15467 net.cpp:168] Memory required for data: 258374000
I1116 20:34:09.606583 15467 layer_factory.hpp:77] Creating layer norm2
I1116 20:34:09.606602 15467 net.cpp:103] Creating Layer norm2
I1116 20:34:09.606611 15467 net.cpp:437] norm2 <- pool2
I1116 20:34:09.606627 15467 net.cpp:411] norm2 -> norm2
I1116 20:34:09.618732 15467 net.cpp:153] Setting up norm2
I1116 20:34:09.618788 15467 net.cpp:160] Top shape: 50 256 13 13 (2163200)
I1116 20:34:09.618796 15467 net.cpp:168] Memory required for data: 267026800
I1116 20:34:09.618808 15467 layer_factory.hpp:77] Creating layer conv3
I1116 20:34:09.618834 15467 net.cpp:103] Creating Layer conv3
I1116 20:34:09.618844 15467 net.cpp:437] conv3 <- norm2
I1116 20:34:09.618861 15467 net.cpp:411] conv3 -> conv3
I1116 20:34:09.650655 15467 net.cpp:153] Setting up conv3
I1116 20:34:09.650707 15467 net.cpp:160] Top shape: 50 384 13 13 (3244800)
I1116 20:34:09.650715 15467 net.cpp:168] Memory required for data: 280006000
I1116 20:34:09.650749 15467 layer_factory.hpp:77] Creating layer relu3
I1116 20:34:09.650766 15467 net.cpp:103] Creating Layer relu3
I1116 20:34:09.650776 15467 net.cpp:437] relu3 <- conv3
I1116 20:34:09.650789 15467 net.cpp:398] relu3 -> conv3 (in-place)
I1116 20:34:09.651561 15467 net.cpp:153] Setting up relu3
I1116 20:34:09.651582 15467 net.cpp:160] Top shape: 50 384 13 13 (3244800)
I1116 20:34:09.651589 15467 net.cpp:168] Memory required for data: 292985200
I1116 20:34:09.651597 15467 layer_factory.hpp:77] Creating layer conv4
I1116 20:34:09.651619 15467 net.cpp:103] Creating Layer conv4
I1116 20:34:09.651629 15467 net.cpp:437] conv4 <- conv3
I1116 20:34:09.651643 15467 net.cpp:411] conv4 -> conv4
I1116 20:34:09.680014 15467 net.cpp:153] Setting up conv4
I1116 20:34:09.680065 15467 net.cpp:160] Top shape: 50 384 13 13 (3244800)
I1116 20:34:09.680073 15467 net.cpp:168] Memory required for data: 305964400
I1116 20:34:09.680099 15467 layer_factory.hpp:77] Creating layer relu4
I1116 20:34:09.680130 15467 net.cpp:103] Creating Layer relu4
I1116 20:34:09.680153 15467 net.cpp:437] relu4 <- conv4
I1116 20:34:09.680169 15467 net.cpp:398] relu4 -> conv4 (in-place)
I1116 20:34:09.680986 15467 net.cpp:153] Setting up relu4
I1116 20:34:09.681007 15467 net.cpp:160] Top shape: 50 384 13 13 (3244800)
I1116 20:34:09.681015 15467 net.cpp:168] Memory required for data: 318943600
I1116 20:34:09.681023 15467 layer_factory.hpp:77] Creating layer conv5
I1116 20:34:09.681046 15467 net.cpp:103] Creating Layer conv5
I1116 20:34:09.681054 15467 net.cpp:437] conv5 <- conv4
I1116 20:34:09.681066 15467 net.cpp:411] conv5 -> conv5
I1116 20:34:09.702841 15467 net.cpp:153] Setting up conv5
I1116 20:34:09.702893 15467 net.cpp:160] Top shape: 50 256 13 13 (2163200)
I1116 20:34:09.702910 15467 net.cpp:168] Memory required for data: 327596400
I1116 20:34:09.702944 15467 layer_factory.hpp:77] Creating layer relu5
I1116 20:34:09.702961 15467 net.cpp:103] Creating Layer relu5
I1116 20:34:09.702970 15467 net.cpp:437] relu5 <- conv5
I1116 20:34:09.702983 15467 net.cpp:398] relu5 -> conv5 (in-place)
I1116 20:34:09.703861 15467 net.cpp:153] Setting up relu5
I1116 20:34:09.703881 15467 net.cpp:160] Top shape: 50 256 13 13 (2163200)
I1116 20:34:09.703889 15467 net.cpp:168] Memory required for data: 336249200
I1116 20:34:09.703903 15467 layer_factory.hpp:77] Creating layer pool5
I1116 20:34:09.703918 15467 net.cpp:103] Creating Layer pool5
I1116 20:34:09.703927 15467 net.cpp:437] pool5 <- conv5
I1116 20:34:09.703938 15467 net.cpp:411] pool5 -> pool5
I1116 20:34:09.706841 15467 net.cpp:153] Setting up pool5
I1116 20:34:09.706862 15467 net.cpp:160] Top shape: 50 256 6 6 (460800)
I1116 20:34:09.706871 15467 net.cpp:168] Memory required for data: 338092400
I1116 20:34:09.706878 15467 layer_factory.hpp:77] Creating layer fc6
I1116 20:34:09.706892 15467 net.cpp:103] Creating Layer fc6
I1116 20:34:09.706900 15467 net.cpp:437] fc6 <- pool5
I1116 20:34:09.706914 15467 net.cpp:411] fc6 -> fc6
I1116 20:34:10.359612 15467 net.cpp:153] Setting up fc6
I1116 20:34:10.359671 15467 net.cpp:160] Top shape: 50 4096 (204800)
I1116 20:34:10.359680 15467 net.cpp:168] Memory required for data: 338911600
I1116 20:34:10.359706 15467 layer_factory.hpp:77] Creating layer relu6
I1116 20:34:10.359721 15467 net.cpp:103] Creating Layer relu6
I1116 20:34:10.359735 15467 net.cpp:437] relu6 <- fc6
I1116 20:34:10.359747 15467 net.cpp:398] relu6 -> fc6 (in-place)
I1116 20:34:10.360080 15467 net.cpp:153] Setting up relu6
I1116 20:34:10.360098 15467 net.cpp:160] Top shape: 50 4096 (204800)
I1116 20:34:10.360106 15467 net.cpp:168] Memory required for data: 339730800
I1116 20:34:10.360115 15467 layer_factory.hpp:77] Creating layer drop6
I1116 20:34:10.360128 15467 net.cpp:103] Creating Layer drop6
I1116 20:34:10.360137 15467 net.cpp:437] drop6 <- fc6
I1116 20:34:10.360147 15467 net.cpp:398] drop6 -> fc6 (in-place)
I1116 20:34:10.360405 15467 net.cpp:153] Setting up drop6
I1116 20:34:10.360426 15467 net.cpp:160] Top shape: 50 4096 (204800)
I1116 20:34:10.360435 15467 net.cpp:168] Memory required for data: 340550000
I1116 20:34:10.360441 15467 layer_factory.hpp:77] Creating layer fc7
I1116 20:34:10.360455 15467 net.cpp:103] Creating Layer fc7
I1116 20:34:10.360461 15467 net.cpp:437] fc7 <- fc6
I1116 20:34:10.360474 15467 net.cpp:411] fc7 -> fc7
I1116 20:34:10.651584 15467 net.cpp:153] Setting up fc7
I1116 20:34:10.651643 15467 net.cpp:160] Top shape: 50 4096 (204800)
I1116 20:34:10.651650 15467 net.cpp:168] Memory required for data: 341369200
I1116 20:34:10.651676 15467 layer_factory.hpp:77] Creating layer relu7
I1116 20:34:10.651696 15467 net.cpp:103] Creating Layer relu7
I1116 20:34:10.651705 15467 net.cpp:437] relu7 <- fc7
I1116 20:34:10.651718 15467 net.cpp:398] relu7 -> fc7 (in-place)
I1116 20:34:10.652048 15467 net.cpp:153] Setting up relu7
I1116 20:34:10.652066 15467 net.cpp:160] Top shape: 50 4096 (204800)
I1116 20:34:10.652075 15467 net.cpp:168] Memory required for data: 342188400
I1116 20:34:10.652081 15467 layer_factory.hpp:77] Creating layer drop7
I1116 20:34:10.652096 15467 net.cpp:103] Creating Layer drop7
I1116 20:34:10.652115 15467 net.cpp:437] drop7 <- fc7
I1116 20:34:10.652142 15467 net.cpp:398] drop7 -> fc7 (in-place)
I1116 20:34:10.652411 15467 net.cpp:153] Setting up drop7
I1116 20:34:10.652427 15467 net.cpp:160] Top shape: 50 4096 (204800)
I1116 20:34:10.652434 15467 net.cpp:168] Memory required for data: 343007600
I1116 20:34:10.652441 15467 layer_factory.hpp:77] Creating layer fc8
I1116 20:34:10.652457 15467 net.cpp:103] Creating Layer fc8
I1116 20:34:10.652464 15467 net.cpp:437] fc8 <- fc7
I1116 20:34:10.652475 15467 net.cpp:411] fc8 -> fc8
I1116 20:34:10.725265 15467 net.cpp:153] Setting up fc8
I1116 20:34:10.725327 15467 net.cpp:160] Top shape: 50 1000 (50000)
I1116 20:34:10.725337 15467 net.cpp:168] Memory required for data: 343207600
I1116 20:34:10.725363 15467 layer_factory.hpp:77] Creating layer fc8_fc8_0_split
I1116 20:34:10.725383 15467 net.cpp:103] Creating Layer fc8_fc8_0_split
I1116 20:34:10.725392 15467 net.cpp:437] fc8_fc8_0_split <- fc8
I1116 20:34:10.725407 15467 net.cpp:411] fc8_fc8_0_split -> fc8_fc8_0_split_0
I1116 20:34:10.725425 15467 net.cpp:411] fc8_fc8_0_split -> fc8_fc8_0_split_1
I1116 20:34:10.725605 15467 net.cpp:153] Setting up fc8_fc8_0_split
I1116 20:34:10.725622 15467 net.cpp:160] Top shape: 50 1000 (50000)
I1116 20:34:10.725631 15467 net.cpp:160] Top shape: 50 1000 (50000)
I1116 20:34:10.725647 15467 net.cpp:168] Memory required for data: 343607600
I1116 20:34:10.725656 15467 layer_factory.hpp:77] Creating layer accuracy
I1116 20:34:10.725670 15467 net.cpp:103] Creating Layer accuracy
I1116 20:34:10.725678 15467 net.cpp:437] accuracy <- fc8_fc8_0_split_0
I1116 20:34:10.725688 15467 net.cpp:437] accuracy <- label_data_1_split_0
I1116 20:34:10.725699 15467 net.cpp:411] accuracy -> accuracy
…
