…
I1116 20:32:19.178984 15412 net.cpp:325] The NetState phase (0) differed from the phase (1) specified by a rule in layer accuracy
I1116 20:32:19.179230 15412 net.cpp:61] Initializing net from parameters: 
name: "CaffeNet"
state {
  phase: TRAIN
  level: 0
  stage: ""
}
layer {
  name: "data"
  type: "Data"
  top: "data"
  top: "label"
  include {
    phase: TRAIN
  }
  transform_param {
    mirror: true
    crop_size: 227
    mean_file: "/home/public/ImageNet12_Copy1/imagenet_mean.binaryproto"
  }
  data_param {
    source: "/home/public/ImageNet12_Copy1/ilsvrc12_train_lmdb"
    batch_size: 256
    backend: LMDB
  }
}
layer {
  name: "conv1"
  type: "Convolution"
  bottom: "data"
  top: "conv1"
  param {
    lr_mult: 1
    decay_mult: 0
    breadth_decay_mult: 0
    kernel_shape_decay_mult: 0.866
    special_shape_decay_mult: 0.866
  }
  param {
    lr_mult: 2
    decay_mult: 0
  }
  connectivity_mode: DISCONNECTED_GRPWISE
  convolution_param {
    num_output: 96
    kernel_size: 11
    stride: 4
    weight_filler {
      type: "gaussian"
      std: 0.01
    }
    bias_filler {
      type: "constant"
      value: 0
    }
  }
}
layer {
  name: "relu1"
  type: "ReLU"
  bottom: "conv1"
  top: "conv1"
}
layer {
  name: "pool1"
  type: "Pooling"
  bottom: "conv1"
  top: "pool1"
  pooling_param {
    pool: MAX
    kernel_size: 3
    stride: 2
  }
}
layer {
  name: "norm1"
  type: "LRN"
  bottom: "pool1"
  top: "norm1"
  lrn_param {
    local_size: 5
    alpha: 0.0001
    beta: 0.75
  }
}
layer {
  name: "conv2"
  type: "Convolution"
  bottom: "norm1"
  top: "conv2"
  param {
    lr_mult: 1
    decay_mult: 0
    breadth_decay_mult: 1
    kernel_shape_decay_mult: 1
    special_shape_decay_mult: 1
  }
  param {
    lr_mult: 2
    decay_mult: 0
  }
  connectivity_mode: DISCONNECTED_GRPWISE
  convolution_param {
    num_output: 256
    pad: 2
    kernel_size: 5
    group: 2
    weight_filler {
      type: "gaussian"
      std: 0.01
    }
    bias_filler {
      type: "constant"
      value: 1
    }
  }
}
layer {
  name: "relu2"
  type: "ReLU"
  bottom: "conv2"
  top: "conv2"
}
layer {
  name: "pool2"
  type: "Pooling"
  bottom: "conv2"
  top: "pool2"
  pooling_param {
    pool: MAX
    kernel_size: 3
    stride: 2
  }
}
layer {
  name: "norm2"
  type: "LRN"
  bottom: "pool2"
  top: "norm2"
  lrn_param {
    local_size: 5
    alpha: 0.0001
    beta: 0.75
  }
}
layer {
  name: "conv3"
  type: "Convolution"
  bottom: "norm2"
  top: "conv3"
  param {
    lr_mult: 1
    decay_mult: 0
    breadth_decay_mult: 1
    kernel_shape_decay_mult: 1.7321
    special_shape_decay_mult: 1
  }
  param {
    lr_mult: 2
    decay_mult: 0
  }
  connectivity_mode: DISCONNECTED_GRPWISE
  convolution_param {
    num_output: 384
    pad: 1
    kernel_size: 3
    weight_filler {
      type: "gaussian"
      std: 0.01
    }
    bias_filler {
      type: "constant"
      value: 0
    }
  }
}
layer {
  name: "relu3"
  type: "ReLU"
  bottom: "conv3"
  top: "conv3"
}
layer {
  name: "conv4"
  type: "Convolution"
  bottom: "conv3"
  top: "conv4"
  param {
    lr_mult: 1
    decay_mult: 0
    breadth_decay_mult: 1
    kernel_shape_decay_mult: 1.2247
    special_shape_decay_mult: 1
  }
  param {
    lr_mult: 2
    decay_mult: 0
  }
  connectivity_mode: DISCONNECTED_GRPWISE
  convolution_param {
    num_output: 384
    pad: 1
    kernel_size: 3
    group: 2
    weight_filler {
      type: "gaussian"
      std: 0.01
    }
    bias_filler {
      type: "constant"
      value: 1
    }
  }
}
layer {
  name: "relu4"
  type: "ReLU"
  bottom: "conv4"
  top: "conv4"
}
layer {
  name: "conv5"
  type: "Convolution"
  bottom: "conv4"
  top: "conv5"
  param {
    lr_mult: 1
    decay_mult: 0
    breadth_decay_mult: 0
    kernel_shape_decay_mult: 1
    special_shape_decay_mult: 1
  }
  param {
    lr_mult: 2
    decay_mult: 0
  }
  connectivity_mode: DISCONNECTED_GRPWISE
  convolution_param {
    num_output: 256
    pad: 1
    kernel_size: 3
    group: 2
    weight_filler {
      type: "gaussian"
      std: 0.01
    }
    bias_filler {
      type: "constant"
      value: 1
    }
  }
}
layer {
  name: "relu5"
  type: "ReLU"
  bottom: "conv5"
  top: "conv5"
}
layer {
  name: "pool5"
  type: "Pooling"
  bottom: "conv5"
  top: "pool5"
  pooling_param {
    pool: MAX
    kernel_size: 3
    stride: 2
  }
}
layer {
  name: "fc6"
  type: "InnerProduct"
  bottom: "pool5"
  top: "fc6"
  param {
    lr_mult: 1
    decay_mult: 1
  }
  param {
    lr_mult: 2
    decay_mult: 0
  }
  inner_product_param {
    num_output: 4096
    weight_filler {
      type: "gaussian"
      std: 0.005
    }
    bias_filler {
      type: "constant"
      value: 1
    }
  }
}
layer {
  name: "relu6"
  type: "ReLU"
  bottom: "fc6"
  top: "fc6"
}
layer {
  name: "drop6"
  type: "Dropout"
  bottom: "fc6"
  top: "fc6"
  dropout_param {
    dropout_ratio: 0.5
  }
}
layer {
  name: "fc7"
  type: "InnerProduct"
  bottom: "fc6"
  top: "fc7"
  param {
    lr_mult: 1
    decay_mult: 1
  }
  param {
    lr_mult: 2
    decay_mult: 0
  }
  inner_product_param {
    num_output: 4096
    weight_filler {
      type: "gaussian"
      std: 0.005
    }
    bias_filler {
      type: "constant"
      value: 1
    }
  }
}
layer {
  name: "relu7"
  type: "ReLU"
  bottom: "fc7"
  top: "fc7"
}
layer {
  name: "drop7"
  type: "Dropout"
  bottom: "fc7"
  top: "fc7"
  dropout_param {
    dropout_ratio: 0.5
  }
}
layer {
  name: "fc8"
  type: "InnerProduct"
  bottom: "fc7"
  top: "fc8"
  param {
    lr_mult: 1
    decay_mult: 1
  }
  param {
    lr_mult: 2
    decay_mult: 0
  }
  inner_product_param {
    num_output: 1000
    weight_filler {
      type: "gaussian"
      std: 0.01
    }
    bias_filler {
      type: "constant"
      value: 0
    }
  }
}
layer {
  name: "loss"
  type: "SoftmaxWithLoss"
  bottom: "fc8"
  bottom: "label"
  top: "loss"
}
I1116 20:32:19.179369 15412 layer_factory.hpp:77] Creating layer data
I1116 20:32:19.180094 15412 net.cpp:103] Creating Layer data
I1116 20:32:19.180116 15412 net.cpp:411] data -> data
I1116 20:32:19.180166 15412 net.cpp:411] data -> label
I1116 20:32:19.180187 15412 data_transformer.cpp:25] Loading mean file from: /home/public/ImageNet12_Copy1/imagenet_mean.binaryproto
I1116 20:32:19.181545 15425 db_lmdb.cpp:35] Opened lmdb /home/public/ImageNet12_Copy1/ilsvrc12_train_lmdb
I1116 20:32:19.635632 15412 data_layer.cpp:41] output data size: 256,3,227,227
I1116 20:32:19.930624 15412 net.cpp:153] Setting up data
I1116 20:32:19.930693 15412 net.cpp:160] Top shape: 256 3 227 227 (39574272)
I1116 20:32:19.930704 15412 net.cpp:160] Top shape: 256 (256)
I1116 20:32:19.930711 15412 net.cpp:168] Memory required for data: 158298112
I1116 20:32:19.930739 15412 layer_factory.hpp:77] Creating layer conv1
I1116 20:32:19.930783 15412 net.cpp:103] Creating Layer conv1
I1116 20:32:19.930799 15412 net.cpp:437] conv1 <- data
I1116 20:32:19.930822 15412 net.cpp:411] conv1 -> conv1
I1116 20:32:20.549753 15412 net.cpp:153] Setting up conv1
I1116 20:32:20.549829 15412 net.cpp:160] Top shape: 256 96 55 55 (74342400)
I1116 20:32:20.549839 15412 net.cpp:168] Memory required for data: 455667712
I1116 20:32:20.549893 15412 layer_factory.hpp:77] Creating layer relu1
I1116 20:32:20.549916 15412 net.cpp:103] Creating Layer relu1
I1116 20:32:20.549927 15412 net.cpp:437] relu1 <- conv1
I1116 20:32:20.549939 15412 net.cpp:398] relu1 -> conv1 (in-place)
I1116 20:32:20.550420 15412 net.cpp:153] Setting up relu1
I1116 20:32:20.550454 15412 net.cpp:160] Top shape: 256 96 55 55 (74342400)
I1116 20:32:20.550462 15412 net.cpp:168] Memory required for data: 753037312
I1116 20:32:20.550469 15412 layer_factory.hpp:77] Creating layer pool1
I1116 20:32:20.550482 15412 net.cpp:103] Creating Layer pool1
I1116 20:32:20.550489 15412 net.cpp:437] pool1 <- conv1
I1116 20:32:20.550500 15412 net.cpp:411] pool1 -> pool1
I1116 20:32:20.640661 15412 net.cpp:153] Setting up pool1
I1116 20:32:20.640735 15412 net.cpp:160] Top shape: 256 96 27 27 (17915904)
I1116 20:32:20.640743 15412 net.cpp:168] Memory required for data: 824700928
I1116 20:32:20.640755 15412 layer_factory.hpp:77] Creating layer norm1
I1116 20:32:20.640785 15412 net.cpp:103] Creating Layer norm1
I1116 20:32:20.640795 15412 net.cpp:437] norm1 <- pool1
I1116 20:32:20.640810 15412 net.cpp:411] norm1 -> norm1
I1116 20:32:20.731616 15412 net.cpp:153] Setting up norm1
I1116 20:32:20.731689 15412 net.cpp:160] Top shape: 256 96 27 27 (17915904)
I1116 20:32:20.731698 15412 net.cpp:168] Memory required for data: 896364544
I1116 20:32:20.731710 15412 layer_factory.hpp:77] Creating layer conv2
I1116 20:32:20.731740 15412 net.cpp:103] Creating Layer conv2
I1116 20:32:20.731751 15412 net.cpp:437] conv2 <- norm1
I1116 20:32:20.731767 15412 net.cpp:411] conv2 -> conv2
I1116 20:32:20.869762 15412 net.cpp:153] Setting up conv2
I1116 20:32:20.869832 15412 net.cpp:160] Top shape: 256 256 27 27 (47775744)
I1116 20:32:20.869841 15412 net.cpp:168] Memory required for data: 1087467520
I1116 20:32:20.869889 15412 layer_factory.hpp:77] Creating layer relu2
I1116 20:32:20.869909 15412 net.cpp:103] Creating Layer relu2
I1116 20:32:20.869917 15412 net.cpp:437] relu2 <- conv2
I1116 20:32:20.869930 15412 net.cpp:398] relu2 -> conv2 (in-place)
I1116 20:32:20.870457 15412 net.cpp:153] Setting up relu2
I1116 20:32:20.870476 15412 net.cpp:160] Top shape: 256 256 27 27 (47775744)
I1116 20:32:20.870484 15412 net.cpp:168] Memory required for data: 1278570496
I1116 20:32:20.870492 15412 layer_factory.hpp:77] Creating layer pool2
I1116 20:32:20.870504 15412 net.cpp:103] Creating Layer pool2
I1116 20:32:20.870512 15412 net.cpp:437] pool2 <- conv2
I1116 20:32:20.870525 15412 net.cpp:411] pool2 -> pool2
I1116 20:32:20.929285 15412 net.cpp:153] Setting up pool2
I1116 20:32:20.929355 15412 net.cpp:160] Top shape: 256 256 13 13 (11075584)
I1116 20:32:20.929364 15412 net.cpp:168] Memory required for data: 1322872832
I1116 20:32:20.929376 15412 layer_factory.hpp:77] Creating layer norm2
I1116 20:32:20.929405 15412 net.cpp:103] Creating Layer norm2
I1116 20:32:20.929415 15412 net.cpp:437] norm2 <- pool2
I1116 20:32:20.929430 15412 net.cpp:411] norm2 -> norm2
I1116 20:32:20.988421 15412 net.cpp:153] Setting up norm2
I1116 20:32:20.988499 15412 net.cpp:160] Top shape: 256 256 13 13 (11075584)
I1116 20:32:20.988508 15412 net.cpp:168] Memory required for data: 1367175168
I1116 20:32:20.988520 15412 layer_factory.hpp:77] Creating layer conv3
I1116 20:32:20.988555 15412 net.cpp:103] Creating Layer conv3
I1116 20:32:20.988566 15412 net.cpp:437] conv3 <- norm2
I1116 20:32:20.988582 15412 net.cpp:411] conv3 -> conv3
I1116 20:32:21.055403 15412 net.cpp:153] Setting up conv3
I1116 20:32:21.055476 15412 net.cpp:160] Top shape: 256 384 13 13 (16613376)
I1116 20:32:21.055485 15412 net.cpp:168] Memory required for data: 1433628672
I1116 20:32:21.055526 15412 layer_factory.hpp:77] Creating layer relu3
I1116 20:32:21.055546 15412 net.cpp:103] Creating Layer relu3
I1116 20:32:21.055555 15412 net.cpp:437] relu3 <- conv3
I1116 20:32:21.055568 15412 net.cpp:398] relu3 -> conv3 (in-place)
I1116 20:32:21.055886 15412 net.cpp:153] Setting up relu3
I1116 20:32:21.055902 15412 net.cpp:160] Top shape: 256 384 13 13 (16613376)
I1116 20:32:21.055909 15412 net.cpp:168] Memory required for data: 1500082176
I1116 20:32:21.055917 15412 layer_factory.hpp:77] Creating layer conv4
I1116 20:32:21.055943 15412 net.cpp:103] Creating Layer conv4
I1116 20:32:21.055951 15412 net.cpp:437] conv4 <- conv3
I1116 20:32:21.055977 15412 net.cpp:411] conv4 -> conv4
I1116 20:32:21.118830 15412 net.cpp:153] Setting up conv4
I1116 20:32:21.118898 15412 net.cpp:160] Top shape: 256 384 13 13 (16613376)
I1116 20:32:21.118906 15412 net.cpp:168] Memory required for data: 1566535680
I1116 20:32:21.118937 15412 layer_factory.hpp:77] Creating layer relu4
I1116 20:32:21.118958 15412 net.cpp:103] Creating Layer relu4
I1116 20:32:21.118968 15412 net.cpp:437] relu4 <- conv4
I1116 20:32:21.118981 15412 net.cpp:398] relu4 -> conv4 (in-place)
I1116 20:32:21.119493 15412 net.cpp:153] Setting up relu4
I1116 20:32:21.119514 15412 net.cpp:160] Top shape: 256 384 13 13 (16613376)
I1116 20:32:21.119521 15412 net.cpp:168] Memory required for data: 1632989184
I1116 20:32:21.119529 15412 layer_factory.hpp:77] Creating layer conv5
I1116 20:32:21.119554 15412 net.cpp:103] Creating Layer conv5
I1116 20:32:21.119563 15412 net.cpp:437] conv5 <- conv4
I1116 20:32:21.119576 15412 net.cpp:411] conv5 -> conv5
I1116 20:32:21.163656 15412 net.cpp:153] Setting up conv5
I1116 20:32:21.163722 15412 net.cpp:160] Top shape: 256 256 13 13 (11075584)
I1116 20:32:21.163729 15412 net.cpp:168] Memory required for data: 1677291520
I1116 20:32:21.163770 15412 layer_factory.hpp:77] Creating layer relu5
I1116 20:32:21.163789 15412 net.cpp:103] Creating Layer relu5
I1116 20:32:21.163800 15412 net.cpp:437] relu5 <- conv5
I1116 20:32:21.163815 15412 net.cpp:398] relu5 -> conv5 (in-place)
I1116 20:32:21.164319 15412 net.cpp:153] Setting up relu5
I1116 20:32:21.164338 15412 net.cpp:160] Top shape: 256 256 13 13 (11075584)
I1116 20:32:21.164345 15412 net.cpp:168] Memory required for data: 1721593856
I1116 20:32:21.164355 15412 layer_factory.hpp:77] Creating layer pool5
I1116 20:32:21.164367 15412 net.cpp:103] Creating Layer pool5
I1116 20:32:21.164374 15412 net.cpp:437] pool5 <- conv5
I1116 20:32:21.164387 15412 net.cpp:411] pool5 -> pool5
I1116 20:32:21.176019 15412 net.cpp:153] Setting up pool5
I1116 20:32:21.176080 15412 net.cpp:160] Top shape: 256 256 6 6 (2359296)
I1116 20:32:21.176087 15412 net.cpp:168] Memory required for data: 1731031040
I1116 20:32:21.176100 15412 layer_factory.hpp:77] Creating layer fc6
I1116 20:32:21.176128 15412 net.cpp:103] Creating Layer fc6
I1116 20:32:21.176137 15412 net.cpp:437] fc6 <- pool5
I1116 20:32:21.176153 15412 net.cpp:411] fc6 -> fc6
I1116 20:32:21.867884 15412 net.cpp:153] Setting up fc6
I1116 20:32:21.867971 15412 net.cpp:160] Top shape: 256 4096 (1048576)
I1116 20:32:21.867981 15412 net.cpp:168] Memory required for data: 1735225344
I1116 20:32:21.868016 15412 layer_factory.hpp:77] Creating layer relu6
I1116 20:32:21.868038 15412 net.cpp:103] Creating Layer relu6
I1116 20:32:21.868049 15412 net.cpp:437] relu6 <- fc6
I1116 20:32:21.868064 15412 net.cpp:398] relu6 -> fc6 (in-place)
I1116 20:32:21.868407 15412 net.cpp:153] Setting up relu6
I1116 20:32:21.868425 15412 net.cpp:160] Top shape: 256 4096 (1048576)
I1116 20:32:21.868432 15412 net.cpp:168] Memory required for data: 1739419648
I1116 20:32:21.868440 15412 layer_factory.hpp:77] Creating layer drop6
I1116 20:32:21.868455 15412 net.cpp:103] Creating Layer drop6
I1116 20:32:21.868463 15412 net.cpp:437] drop6 <- fc6
I1116 20:32:21.868474 15412 net.cpp:398] drop6 -> fc6 (in-place)
I1116 20:32:21.871115 15412 net.cpp:153] Setting up drop6
I1116 20:32:21.871136 15412 net.cpp:160] Top shape: 256 4096 (1048576)
I1116 20:32:21.871145 15412 net.cpp:168] Memory required for data: 1743613952
I1116 20:32:21.871152 15412 layer_factory.hpp:77] Creating layer fc7
I1116 20:32:21.871170 15412 net.cpp:103] Creating Layer fc7
I1116 20:32:21.871177 15412 net.cpp:437] fc7 <- fc6
I1116 20:32:21.871191 15412 net.cpp:411] fc7 -> fc7
I1116 20:32:22.163990 15412 net.cpp:153] Setting up fc7
I1116 20:32:22.164067 15412 net.cpp:160] Top shape: 256 4096 (1048576)
I1116 20:32:22.164077 15412 net.cpp:168] Memory required for data: 1747808256
I1116 20:32:22.164111 15412 layer_factory.hpp:77] Creating layer relu7
I1116 20:32:22.164135 15412 net.cpp:103] Creating Layer relu7
I1116 20:32:22.164146 15412 net.cpp:437] relu7 <- fc7
I1116 20:32:22.164176 15412 net.cpp:398] relu7 -> fc7 (in-place)
I1116 20:32:22.164816 15412 net.cpp:153] Setting up relu7
I1116 20:32:22.164835 15412 net.cpp:160] Top shape: 256 4096 (1048576)
I1116 20:32:22.164842 15412 net.cpp:168] Memory required for data: 1752002560
I1116 20:32:22.164849 15412 layer_factory.hpp:77] Creating layer drop7
I1116 20:32:22.164865 15412 net.cpp:103] Creating Layer drop7
I1116 20:32:22.164872 15412 net.cpp:437] drop7 <- fc7
I1116 20:32:22.164881 15412 net.cpp:398] drop7 -> fc7 (in-place)
I1116 20:32:22.167433 15412 net.cpp:153] Setting up drop7
I1116 20:32:22.167454 15412 net.cpp:160] Top shape: 256 4096 (1048576)
I1116 20:32:22.167461 15412 net.cpp:168] Memory required for data: 1756196864
I1116 20:32:22.167469 15412 layer_factory.hpp:77] Creating layer fc8
I1116 20:32:22.167482 15412 net.cpp:103] Creating Layer fc8
I1116 20:32:22.167490 15412 net.cpp:437] fc8 <- fc7
I1116 20:32:22.167502 15412 net.cpp:411] fc8 -> fc8
I1116 20:32:22.230573 15412 net.cpp:153] Setting up fc8
I1116 20:32:22.230643 15412 net.cpp:160] Top shape: 256 1000 (256000)
I1116 20:32:22.230650 15412 net.cpp:168] Memory required for data: 1757220864
I1116 20:32:22.230681 15412 layer_factory.hpp:77] Creating layer loss
I1116 20:32:22.230711 15412 net.cpp:103] Creating Layer loss
I1116 20:32:22.230720 15412 net.cpp:437] loss <- fc8
I1116 20:32:22.230732 15412 net.cpp:437] loss <- label
I1116 20:32:22.230747 15412 net.cpp:411] loss -> loss
I1116 20:32:22.230777 15412 layer_factory.hpp:77] Creating layer loss
…
I1116 20:32:22.233371 15412 net.cpp:325] The NetState phase (1) differed from the phase (0) specified by a rule in layer data
I1116 20:32:22.233599 15412 net.cpp:61] Initializing net from parameters: 
name: "CaffeNet"
state {
  phase: TEST
}
layer {
  name: "data"
  type: "Data"
  top: "data"
  top: "label"
  include {
    phase: TEST
  }
  transform_param {
    mirror: false
    crop_size: 227
    mean_file: "/home/public/ImageNet12_Copy1/imagenet_mean.binaryproto"
  }
  data_param {
    source: "/home/public/ImageNet12_Copy1/ilsvrc12_val_lmdb"
    batch_size: 50
    backend: LMDB
  }
}
layer {
  name: "conv1"
  type: "Convolution"
  bottom: "data"
  top: "conv1"
  param {
    lr_mult: 1
    decay_mult: 0
    breadth_decay_mult: 0
    kernel_shape_decay_mult: 0.866
    special_shape_decay_mult: 0.866
  }
  param {
    lr_mult: 2
    decay_mult: 0
  }
  connectivity_mode: DISCONNECTED_GRPWISE
  convolution_param {
    num_output: 96
    kernel_size: 11
    stride: 4
    weight_filler {
      type: "gaussian"
      std: 0.01
    }
    bias_filler {
      type: "constant"
      value: 0
    }
  }
}
layer {
  name: "relu1"
  type: "ReLU"
  bottom: "conv1"
  top: "conv1"
}
layer {
  name: "pool1"
  type: "Pooling"
  bottom: "conv1"
  top: "pool1"
  pooling_param {
    pool: MAX
    kernel_size: 3
    stride: 2
  }
}
layer {
  name: "norm1"
  type: "LRN"
  bottom: "pool1"
  top: "norm1"
  lrn_param {
    local_size: 5
    alpha: 0.0001
    beta: 0.75
  }
}
layer {
  name: "conv2"
  type: "Convolution"
  bottom: "norm1"
  top: "conv2"
  param {
    lr_mult: 1
    decay_mult: 0
    breadth_decay_mult: 1
    kernel_shape_decay_mult: 1
    special_shape_decay_mult: 1
  }
  param {
    lr_mult: 2
    decay_mult: 0
  }
  connectivity_mode: DISCONNECTED_GRPWISE
  convolution_param {
    num_output: 256
    pad: 2
    kernel_size: 5
    group: 2
    weight_filler {
      type: "gaussian"
      std: 0.01
    }
    bias_filler {
      type: "constant"
      value: 1
    }
  }
}
layer {
  name: "relu2"
  type: "ReLU"
  bottom: "conv2"
  top: "conv2"
}
layer {
  name: "pool2"
  type: "Pooling"
  bottom: "conv2"
  top: "pool2"
  pooling_param {
    pool: MAX
    kernel_size: 3
    stride: 2
  }
}
layer {
  name: "norm2"
  type: "LRN"
  bottom: "pool2"
  top: "norm2"
  lrn_param {
    local_size: 5
    alpha: 0.0001
    beta: 0.75
  }
}
layer {
  name: "conv3"
  type: "Convolution"
  bottom: "norm2"
  top: "conv3"
  param {
    lr_mult: 1
    decay_mult: 0
    breadth_decay_mult: 1
    kernel_shape_decay_mult: 1.7321
    special_shape_decay_mult: 1
  }
  param {
    lr_mult: 2
    decay_mult: 0
  }
  connectivity_mode: DISCONNECTED_GRPWISE
  convolution_param {
    num_output: 384
    pad: 1
    kernel_size: 3
    weight_filler {
      type: "gaussian"
      std: 0.01
    }
    bias_filler {
      type: "constant"
      value: 0
    }
  }
}
layer {
  name: "relu3"
  type: "ReLU"
  bottom: "conv3"
  top: "conv3"
}
layer {
  name: "conv4"
  type: "Convolution"
  bottom: "conv3"
  top: "conv4"
  param {
    lr_mult: 1
    decay_mult: 0
    breadth_decay_mult: 1
    kernel_shape_decay_mult: 1.2247
    special_shape_decay_mult: 1
  }
  param {
    lr_mult: 2
    decay_mult: 0
  }
  connectivity_mode: DISCONNECTED_GRPWISE
  convolution_param {
    num_output: 384
    pad: 1
    kernel_size: 3
    group: 2
    weight_filler {
      type: "gaussian"
      std: 0.01
    }
    bias_filler {
      type: "constant"
      value: 1
    }
  }
}
layer {
  name: "relu4"
  type: "ReLU"
  bottom: "conv4"
  top: "conv4"
}
layer {
  name: "conv5"
  type: "Convolution"
  bottom: "conv4"
  top: "conv5"
  param {
    lr_mult: 1
    decay_mult: 0
    breadth_decay_mult: 0
    kernel_shape_decay_mult: 1
    special_shape_decay_mult: 1
  }
  param {
    lr_mult: 2
    decay_mult: 0
  }
  connectivity_mode: DISCONNECTED_GRPWISE
  convolution_param {
    num_output: 256
    pad: 1
    kernel_size: 3
    group: 2
    weight_filler {
      type: "gaussian"
      std: 0.01
    }
    bias_filler {
      type: "constant"
      value: 1
    }
  }
}
layer {
  name: "relu5"
  type: "ReLU"
  bottom: "conv5"
  top: "conv5"
}
layer {
  name: "pool5"
  type: "Pooling"
  bottom: "conv5"
  top: "pool5"
  pooling_param {
    pool: MAX
    kernel_size: 3
    stride: 2
  }
}
layer {
  name: "fc6"
  type: "InnerProduct"
  bottom: "pool5"
  top: "fc6"
  param {
    lr_mult: 1
    decay_mult: 1
  }
  param {
    lr_mult: 2
    decay_mult: 0
  }
  inner_product_param {
    num_output: 4096
    weight_filler {
      type: "gaussian"
      std: 0.005
    }
    bias_filler {
      type: "constant"
      value: 1
    }
  }
}
layer {
  name: "relu6"
  type: "ReLU"
  bottom: "fc6"
  top: "fc6"
}
layer {
  name: "drop6"
  type: "Dropout"
  bottom: "fc6"
  top: "fc6"
  dropout_param {
    dropout_ratio: 0.5
  }
}
layer {
  name: "fc7"
  type: "InnerProduct"
  bottom: "fc6"
  top: "fc7"
  param {
    lr_mult: 1
    decay_mult: 1
  }
  param {
    lr_mult: 2
    decay_mult: 0
  }
  inner_product_param {
    num_output: 4096
    weight_filler {
      type: "gaussian"
      std: 0.005
    }
    bias_filler {
      type: "constant"
      value: 1
    }
  }
}
layer {
  name: "relu7"
  type: "ReLU"
  bottom: "fc7"
  top: "fc7"
}
layer {
  name: "drop7"
  type: "Dropout"
  bottom: "fc7"
  top: "fc7"
  dropout_param {
    dropout_ratio: 0.5
  }
}
layer {
  name: "fc8"
  type: "InnerProduct"
  bottom: "fc7"
  top: "fc8"
  param {
    lr_mult: 1
    decay_mult: 1
  }
  param {
    lr_mult: 2
    decay_mult: 0
  }
  inner_product_param {
    num_output: 1000
    weight_filler {
      type: "gaussian"
      std: 0.01
    }
    bias_filler {
      type: "constant"
      value: 0
    }
  }
}
layer {
  name: "accuracy"
  type: "Accuracy"
  bottom: "fc8"
  bottom: "label"
  top: "accuracy"
  include {
    phase: TEST
  }
}
layer {
  name: "loss"
  type: "SoftmaxWithLoss"
  bottom: "fc8"
  bottom: "label"
  top: "loss"
}
I1116 20:32:22.233755 15412 layer_factory.hpp:77] Creating layer data
I1116 20:32:22.233882 15412 net.cpp:103] Creating Layer data
I1116 20:32:22.233899 15412 net.cpp:411] data -> data
I1116 20:32:22.233914 15412 net.cpp:411] data -> label
I1116 20:32:22.233927 15412 data_transformer.cpp:25] Loading mean file from: /home/public/ImageNet12_Copy1/imagenet_mean.binaryproto
I1116 20:32:22.236351 15427 db_lmdb.cpp:35] Opened lmdb /home/public/ImageNet12_Copy1/ilsvrc12_val_lmdb
I1116 20:32:22.355247 15412 data_layer.cpp:41] output data size: 50,3,227,227
I1116 20:32:22.417645 15412 net.cpp:153] Setting up data
I1116 20:32:22.417711 15412 net.cpp:160] Top shape: 50 3 227 227 (7729350)
I1116 20:32:22.417724 15412 net.cpp:160] Top shape: 50 (50)
I1116 20:32:22.417732 15412 net.cpp:168] Memory required for data: 30917600
I1116 20:32:22.417744 15412 layer_factory.hpp:77] Creating layer label_data_1_split
I1116 20:32:22.417765 15412 net.cpp:103] Creating Layer label_data_1_split
I1116 20:32:22.417774 15412 net.cpp:437] label_data_1_split <- label
I1116 20:32:22.417788 15412 net.cpp:411] label_data_1_split -> label_data_1_split_0
I1116 20:32:22.417809 15412 net.cpp:411] label_data_1_split -> label_data_1_split_1
I1116 20:32:22.418282 15412 net.cpp:153] Setting up label_data_1_split
I1116 20:32:22.418342 15412 net.cpp:160] Top shape: 50 (50)
I1116 20:32:22.418360 15412 net.cpp:160] Top shape: 50 (50)
I1116 20:32:22.418373 15412 net.cpp:168] Memory required for data: 30918000
I1116 20:32:22.418388 15412 layer_factory.hpp:77] Creating layer conv1
I1116 20:32:22.418424 15412 net.cpp:103] Creating Layer conv1
I1116 20:32:22.418442 15412 net.cpp:437] conv1 <- data
I1116 20:32:22.418467 15412 net.cpp:411] conv1 -> conv1
I1116 20:32:22.493067 15412 net.cpp:153] Setting up conv1
I1116 20:32:22.493152 15412 net.cpp:160] Top shape: 50 96 55 55 (14520000)
I1116 20:32:22.493166 15412 net.cpp:168] Memory required for data: 88998000
I1116 20:32:22.493227 15412 layer_factory.hpp:77] Creating layer relu1
I1116 20:32:22.493252 15412 net.cpp:103] Creating Layer relu1
I1116 20:32:22.493265 15412 net.cpp:437] relu1 <- conv1
I1116 20:32:22.493284 15412 net.cpp:398] relu1 -> conv1 (in-place)
I1116 20:32:22.494077 15412 net.cpp:153] Setting up relu1
I1116 20:32:22.494107 15412 net.cpp:160] Top shape: 50 96 55 55 (14520000)
I1116 20:32:22.494117 15412 net.cpp:168] Memory required for data: 147078000
I1116 20:32:22.494128 15412 layer_factory.hpp:77] Creating layer pool1
I1116 20:32:22.494151 15412 net.cpp:103] Creating Layer pool1
I1116 20:32:22.494184 15412 net.cpp:437] pool1 <- conv1
I1116 20:32:22.494215 15412 net.cpp:411] pool1 -> pool1
I1116 20:32:22.519714 15412 net.cpp:153] Setting up pool1
I1116 20:32:22.519795 15412 net.cpp:160] Top shape: 50 96 27 27 (3499200)
I1116 20:32:22.519806 15412 net.cpp:168] Memory required for data: 161074800
I1116 20:32:22.519819 15412 layer_factory.hpp:77] Creating layer norm1
I1116 20:32:22.519845 15412 net.cpp:103] Creating Layer norm1
I1116 20:32:22.519857 15412 net.cpp:437] norm1 <- pool1
I1116 20:32:22.519877 15412 net.cpp:411] norm1 -> norm1
I1116 20:32:22.542404 15412 net.cpp:153] Setting up norm1
I1116 20:32:22.542476 15412 net.cpp:160] Top shape: 50 96 27 27 (3499200)
I1116 20:32:22.542486 15412 net.cpp:168] Memory required for data: 175071600
I1116 20:32:22.542500 15412 layer_factory.hpp:77] Creating layer conv2
I1116 20:32:22.542538 15412 net.cpp:103] Creating Layer conv2
I1116 20:32:22.542549 15412 net.cpp:437] conv2 <- norm1
I1116 20:32:22.542570 15412 net.cpp:411] conv2 -> conv2
I1116 20:32:22.585338 15412 net.cpp:153] Setting up conv2
I1116 20:32:22.585412 15412 net.cpp:160] Top shape: 50 256 27 27 (9331200)
I1116 20:32:22.585420 15412 net.cpp:168] Memory required for data: 212396400
I1116 20:32:22.585464 15412 layer_factory.hpp:77] Creating layer relu2
I1116 20:32:22.585486 15412 net.cpp:103] Creating Layer relu2
I1116 20:32:22.585501 15412 net.cpp:437] relu2 <- conv2
I1116 20:32:22.585518 15412 net.cpp:398] relu2 -> conv2 (in-place)
I1116 20:32:22.585875 15412 net.cpp:153] Setting up relu2
I1116 20:32:22.585893 15412 net.cpp:160] Top shape: 50 256 27 27 (9331200)
I1116 20:32:22.585901 15412 net.cpp:168] Memory required for data: 249721200
I1116 20:32:22.585907 15412 layer_factory.hpp:77] Creating layer pool2
I1116 20:32:22.585925 15412 net.cpp:103] Creating Layer pool2
I1116 20:32:22.585933 15412 net.cpp:437] pool2 <- conv2
I1116 20:32:22.585945 15412 net.cpp:411] pool2 -> pool2
I1116 20:32:22.596626 15412 net.cpp:153] Setting up pool2
I1116 20:32:22.596683 15412 net.cpp:160] Top shape: 50 256 13 13 (2163200)
I1116 20:32:22.596690 15412 net.cpp:168] Memory required for data: 258374000
I1116 20:32:22.596702 15412 layer_factory.hpp:77] Creating layer norm2
I1116 20:32:22.596724 15412 net.cpp:103] Creating Layer norm2
I1116 20:32:22.596735 15412 net.cpp:437] norm2 <- pool2
I1116 20:32:22.596750 15412 net.cpp:411] norm2 -> norm2
I1116 20:32:22.608090 15412 net.cpp:153] Setting up norm2
I1116 20:32:22.608151 15412 net.cpp:160] Top shape: 50 256 13 13 (2163200)
I1116 20:32:22.608160 15412 net.cpp:168] Memory required for data: 267026800
I1116 20:32:22.608172 15412 layer_factory.hpp:77] Creating layer conv3
I1116 20:32:22.608206 15412 net.cpp:103] Creating Layer conv3
I1116 20:32:22.608217 15412 net.cpp:437] conv3 <- norm2
I1116 20:32:22.608237 15412 net.cpp:411] conv3 -> conv3
I1116 20:32:22.639777 15412 net.cpp:153] Setting up conv3
I1116 20:32:22.639838 15412 net.cpp:160] Top shape: 50 384 13 13 (3244800)
I1116 20:32:22.639847 15412 net.cpp:168] Memory required for data: 280006000
I1116 20:32:22.639892 15412 layer_factory.hpp:77] Creating layer relu3
I1116 20:32:22.639914 15412 net.cpp:103] Creating Layer relu3
I1116 20:32:22.639925 15412 net.cpp:437] relu3 <- conv3
I1116 20:32:22.639940 15412 net.cpp:398] relu3 -> conv3 (in-place)
I1116 20:32:22.640280 15412 net.cpp:153] Setting up relu3
I1116 20:32:22.640297 15412 net.cpp:160] Top shape: 50 384 13 13 (3244800)
I1116 20:32:22.640305 15412 net.cpp:168] Memory required for data: 292985200
I1116 20:32:22.640311 15412 layer_factory.hpp:77] Creating layer conv4
I1116 20:32:22.640337 15412 net.cpp:103] Creating Layer conv4
I1116 20:32:22.640346 15412 net.cpp:437] conv4 <- conv3
I1116 20:32:22.640360 15412 net.cpp:411] conv4 -> conv4
I1116 20:32:22.668593 15412 net.cpp:153] Setting up conv4
I1116 20:32:22.668661 15412 net.cpp:160] Top shape: 50 384 13 13 (3244800)
I1116 20:32:22.668669 15412 net.cpp:168] Memory required for data: 305964400
I1116 20:32:22.668704 15412 layer_factory.hpp:77] Creating layer relu4
I1116 20:32:22.668740 15412 net.cpp:103] Creating Layer relu4
I1116 20:32:22.668761 15412 net.cpp:437] relu4 <- conv4
I1116 20:32:22.668776 15412 net.cpp:398] relu4 -> conv4 (in-place)
I1116 20:32:22.669128 15412 net.cpp:153] Setting up relu4
I1116 20:32:22.669147 15412 net.cpp:160] Top shape: 50 384 13 13 (3244800)
I1116 20:32:22.669153 15412 net.cpp:168] Memory required for data: 318943600
I1116 20:32:22.669160 15412 layer_factory.hpp:77] Creating layer conv5
I1116 20:32:22.669186 15412 net.cpp:103] Creating Layer conv5
I1116 20:32:22.669194 15412 net.cpp:437] conv5 <- conv4
I1116 20:32:22.669209 15412 net.cpp:411] conv5 -> conv5
I1116 20:32:22.689534 15412 net.cpp:153] Setting up conv5
I1116 20:32:22.689595 15412 net.cpp:160] Top shape: 50 256 13 13 (2163200)
I1116 20:32:22.689604 15412 net.cpp:168] Memory required for data: 327596400
I1116 20:32:22.689662 15412 layer_factory.hpp:77] Creating layer relu5
I1116 20:32:22.689683 15412 net.cpp:103] Creating Layer relu5
I1116 20:32:22.689694 15412 net.cpp:437] relu5 <- conv5
I1116 20:32:22.689709 15412 net.cpp:398] relu5 -> conv5 (in-place)
I1116 20:32:22.690256 15412 net.cpp:153] Setting up relu5
I1116 20:32:22.690279 15412 net.cpp:160] Top shape: 50 256 13 13 (2163200)
I1116 20:32:22.690286 15412 net.cpp:168] Memory required for data: 336249200
I1116 20:32:22.690294 15412 layer_factory.hpp:77] Creating layer pool5
I1116 20:32:22.690313 15412 net.cpp:103] Creating Layer pool5
I1116 20:32:22.690321 15412 net.cpp:437] pool5 <- conv5
I1116 20:32:22.690331 15412 net.cpp:411] pool5 -> pool5
I1116 20:32:22.692893 15412 net.cpp:153] Setting up pool5
I1116 20:32:22.692914 15412 net.cpp:160] Top shape: 50 256 6 6 (460800)
I1116 20:32:22.692920 15412 net.cpp:168] Memory required for data: 338092400
I1116 20:32:22.692929 15412 layer_factory.hpp:77] Creating layer fc6
I1116 20:32:22.692945 15412 net.cpp:103] Creating Layer fc6
I1116 20:32:22.692953 15412 net.cpp:437] fc6 <- pool5
I1116 20:32:22.692966 15412 net.cpp:411] fc6 -> fc6
I1116 20:32:23.336215 15412 net.cpp:153] Setting up fc6
I1116 20:32:23.336275 15412 net.cpp:160] Top shape: 50 4096 (204800)
I1116 20:32:23.336285 15412 net.cpp:168] Memory required for data: 338911600
I1116 20:32:23.336316 15412 layer_factory.hpp:77] Creating layer relu6
I1116 20:32:23.336338 15412 net.cpp:103] Creating Layer relu6
I1116 20:32:23.336349 15412 net.cpp:437] relu6 <- fc6
I1116 20:32:23.336364 15412 net.cpp:398] relu6 -> fc6 (in-place)
I1116 20:32:23.336727 15412 net.cpp:153] Setting up relu6
I1116 20:32:23.336745 15412 net.cpp:160] Top shape: 50 4096 (204800)
I1116 20:32:23.336752 15412 net.cpp:168] Memory required for data: 339730800
I1116 20:32:23.336760 15412 layer_factory.hpp:77] Creating layer drop6
I1116 20:32:23.336772 15412 net.cpp:103] Creating Layer drop6
I1116 20:32:23.336779 15412 net.cpp:437] drop6 <- fc6
I1116 20:32:23.336791 15412 net.cpp:398] drop6 -> fc6 (in-place)
I1116 20:32:23.337620 15412 net.cpp:153] Setting up drop6
I1116 20:32:23.337652 15412 net.cpp:160] Top shape: 50 4096 (204800)
I1116 20:32:23.337661 15412 net.cpp:168] Memory required for data: 340550000
I1116 20:32:23.337669 15412 layer_factory.hpp:77] Creating layer fc7
I1116 20:32:23.337687 15412 net.cpp:103] Creating Layer fc7
I1116 20:32:23.337698 15412 net.cpp:437] fc7 <- fc6
I1116 20:32:23.337713 15412 net.cpp:411] fc7 -> fc7
I1116 20:32:23.616734 15412 net.cpp:153] Setting up fc7
I1116 20:32:23.616808 15412 net.cpp:160] Top shape: 50 4096 (204800)
I1116 20:32:23.616817 15412 net.cpp:168] Memory required for data: 341369200
I1116 20:32:23.616847 15412 layer_factory.hpp:77] Creating layer relu7
I1116 20:32:23.616864 15412 net.cpp:103] Creating Layer relu7
I1116 20:32:23.616874 15412 net.cpp:437] relu7 <- fc7
I1116 20:32:23.616890 15412 net.cpp:398] relu7 -> fc7 (in-place)
I1116 20:32:23.617486 15412 net.cpp:153] Setting up relu7
I1116 20:32:23.617514 15412 net.cpp:160] Top shape: 50 4096 (204800)
I1116 20:32:23.617522 15412 net.cpp:168] Memory required for data: 342188400
I1116 20:32:23.617528 15412 layer_factory.hpp:77] Creating layer drop7
I1116 20:32:23.617540 15412 net.cpp:103] Creating Layer drop7
I1116 20:32:23.617559 15412 net.cpp:437] drop7 <- fc7
I1116 20:32:23.617583 15412 net.cpp:398] drop7 -> fc7 (in-place)
I1116 20:32:23.618340 15412 net.cpp:153] Setting up drop7
I1116 20:32:23.618369 15412 net.cpp:160] Top shape: 50 4096 (204800)
I1116 20:32:23.618376 15412 net.cpp:168] Memory required for data: 343007600
I1116 20:32:23.618383 15412 layer_factory.hpp:77] Creating layer fc8
I1116 20:32:23.618398 15412 net.cpp:103] Creating Layer fc8
I1116 20:32:23.618405 15412 net.cpp:437] fc8 <- fc7
I1116 20:32:23.618417 15412 net.cpp:411] fc8 -> fc8
I1116 20:32:23.679076 15412 net.cpp:153] Setting up fc8
I1116 20:32:23.679147 15412 net.cpp:160] Top shape: 50 1000 (50000)
I1116 20:32:23.679154 15412 net.cpp:168] Memory required for data: 343207600
I1116 20:32:23.679183 15412 layer_factory.hpp:77] Creating layer fc8_fc8_0_split
I1116 20:32:23.679200 15412 net.cpp:103] Creating Layer fc8_fc8_0_split
I1116 20:32:23.679210 15412 net.cpp:437] fc8_fc8_0_split <- fc8
I1116 20:32:23.679224 15412 net.cpp:411] fc8_fc8_0_split -> fc8_fc8_0_split_0
I1116 20:32:23.679244 15412 net.cpp:411] fc8_fc8_0_split -> fc8_fc8_0_split_1
I1116 20:32:23.679410 15412 net.cpp:153] Setting up fc8_fc8_0_split
I1116 20:32:23.679425 15412 net.cpp:160] Top shape: 50 1000 (50000)
I1116 20:32:23.679432 15412 net.cpp:160] Top shape: 50 1000 (50000)
I1116 20:32:23.679438 15412 net.cpp:168] Memory required for data: 343607600
I1116 20:32:23.679445 15412 layer_factory.hpp:77] Creating layer accuracy
I1116 20:32:23.679457 15412 net.cpp:103] Creating Layer accuracy
I1116 20:32:23.679466 15412 net.cpp:437] accuracy <- fc8_fc8_0_split_0
I1116 20:32:23.679474 15412 net.cpp:437] accuracy <- label_data_1_split_0
I1116 20:32:23.679486 15412 net.cpp:411] accuracy -> accuracy
…
