…
I1012 11:19:27.387356  3059 net.cpp:316] The NetState phase (0) differed from the phase (1) specified by a rule in layer mnist
I1012 11:19:27.387374  3059 net.cpp:316] The NetState phase (0) differed from the phase (1) specified by a rule in layer accuracy
I1012 11:19:27.387472  3059 net.cpp:52] Initializing net from parameters: 
name: "LeNet"
state {
  phase: TRAIN
}
layer {
  name: "mnist"
  type: "Data"
  top: "data"
  top: "label"
  include {
    phase: TRAIN
  }
  transform_param {
    scale: 0.00390625
  }
  data_param {
    source: "./mnist_train_lmdb"
    batch_size: 64
    backend: LMDB
  }
}
layer {
  name: "conv1"
  type: "Convolution"
  bottom: "data"
  top: "conv1"
  param {
    lr_mult: 1
    decay_mult: 1
    breadth_decay_mult: 1
    kernel_shape_decay_mult: 1
    block_group_lasso {
      xdimen: 25
      ydimen: 5
      block_decay_mult: 1
    }
    special_shape_decay_mult: 1
  }
  param {
    lr_mult: 2
    decay_mult: 1
  }
  connectivity_mode: CONNECTED
  convolution_param {
    num_output: 20
    kernel_size: 5
    stride: 1
    weight_filler {
      type: "xavier"
    }
    bias_filler {
      type: "constant"
    }
  }
}
layer {
  name: "pool1"
  type: "Pooling"
  bottom: "conv1"
  top: "pool1"
  pooling_param {
    pool: MAX
    kernel_size: 2
    stride: 2
  }
}
layer {
  name: "conv2"
  type: "Convolution"
  bottom: "pool1"
  top: "conv2"
  param {
    lr_mult: 1
    decay_mult: 1
    breadth_decay_mult: 1
    kernel_shape_decay_mult: 1
    block_group_lasso {
      xdimen: 25
      ydimen: 5
      block_decay_mult: 1
    }
    special_shape_decay_mult: 1
  }
  param {
    lr_mult: 2
    decay_mult: 1
  }
  connectivity_mode: CONNECTED
  convolution_param {
    num_output: 50
    kernel_size: 5
    stride: 1
    weight_filler {
      type: "xavier"
    }
    bias_filler {
      type: "constant"
    }
  }
}
layer {
  name: "pool2"
  type: "Pooling"
  bottom: "conv2"
  top: "pool2"
  pooling_param {
    pool: MAX
    kernel_size: 2
    stride: 2
  }
}
layer {
  name: "ip1"
  type: "InnerProduct"
  bottom: "pool2"
  top: "ip1"
  param {
    lr_mult: 1
    decay_mult: 1
    breadth_decay_mult: 1
    kernel_shape_decay_mult: 1
    block_group_lasso {
      xdimen: 10
      ydimen: 10
      block_decay_mult: 1
    }
  }
  param {
    lr_mult: 2
    decay_mult: 1
  }
  inner_product_param {
    num_output: 500
    weight_filler {
      type: "xavier"
    }
    bias_filler {
      type: "constant"
    }
  }
}
layer {
  name: "relu1"
  type: "ReLU"
  bottom: "ip1"
  top: "ip1"
}
layer {
  name: "ip2"
  type: "InnerProduct"
  bottom: "ip1"
  top: "ip2"
  param {
    lr_mult: 1
    decay_mult: 1
    breadth_decay_mult: 1
    kernel_shape_decay_mult: 1
    block_group_lasso {
      xdimen: 10
      ydimen: 10
      block_decay_mult: 1
    }
  }
  param {
    lr_mult: 2
    decay_mult: 1
  }
  inner_product_param {
    num_output: 10
    weight_filler {
      type: "xavier"
    }
    bias_filler {
      type: "constant"
    }
  }
}
layer {
  name: "loss"
  type: "SoftmaxWithLoss"
  bottom: "ip2"
  bottom: "label"
  top: "loss"
}
I1012 11:19:27.387568  3059 layer_factory.hpp:77] Creating layer mnist
I1012 11:19:27.388051  3059 net.cpp:94] Creating Layer mnist
I1012 11:19:27.388065  3059 net.cpp:402] mnist -> data
I1012 11:19:27.388098  3059 net.cpp:402] mnist -> label
I1012 11:19:27.389686  3094 db_lmdb.cpp:38] Opened lmdb ./mnist_train_lmdb
I1012 11:19:27.549403  3059 data_layer.cpp:41] output data size: 64,1,28,28
I1012 11:19:27.561975  3059 net.cpp:144] Setting up mnist
I1012 11:19:27.562031  3059 net.cpp:151] Top shape: 64 1 28 28 (50176)
I1012 11:19:27.562041  3059 net.cpp:151] Top shape: 64 (64)
I1012 11:19:27.562048  3059 net.cpp:159] Memory required for data: 200960
I1012 11:19:27.562067  3059 layer_factory.hpp:77] Creating layer conv1
I1012 11:19:27.562101  3059 net.cpp:94] Creating Layer conv1
I1012 11:19:27.562113  3059 net.cpp:428] conv1 <- data
I1012 11:19:27.562131  3059 net.cpp:402] conv1 -> conv1
I1012 11:19:27.568586  3059 net.cpp:144] Setting up conv1
I1012 11:19:27.568644  3059 net.cpp:151] Top shape: 64 20 24 24 (737280)
I1012 11:19:27.568655  3059 net.cpp:159] Memory required for data: 3150080
I1012 11:19:27.568725  3059 layer_factory.hpp:77] Creating layer pool1
I1012 11:19:27.568752  3059 net.cpp:94] Creating Layer pool1
I1012 11:19:27.568764  3059 net.cpp:428] pool1 <- conv1
I1012 11:19:27.568780  3059 net.cpp:402] pool1 -> pool1
I1012 11:19:27.571055  3059 net.cpp:144] Setting up pool1
I1012 11:19:27.571086  3059 net.cpp:151] Top shape: 64 20 12 12 (184320)
I1012 11:19:27.571096  3059 net.cpp:159] Memory required for data: 3887360
I1012 11:19:27.571107  3059 layer_factory.hpp:77] Creating layer conv2
I1012 11:19:27.571135  3059 net.cpp:94] Creating Layer conv2
I1012 11:19:27.571144  3059 net.cpp:428] conv2 <- pool1
I1012 11:19:27.571161  3059 net.cpp:402] conv2 -> conv2
I1012 11:19:27.577546  3059 net.cpp:144] Setting up conv2
I1012 11:19:27.577587  3059 net.cpp:151] Top shape: 64 50 8 8 (204800)
I1012 11:19:27.577596  3059 net.cpp:159] Memory required for data: 4706560
I1012 11:19:27.577639  3059 layer_factory.hpp:77] Creating layer pool2
I1012 11:19:27.577663  3059 net.cpp:94] Creating Layer pool2
I1012 11:19:27.577672  3059 net.cpp:428] pool2 <- conv2
I1012 11:19:27.577687  3059 net.cpp:402] pool2 -> pool2
I1012 11:19:27.579443  3059 net.cpp:144] Setting up pool2
I1012 11:19:27.579468  3059 net.cpp:151] Top shape: 64 50 4 4 (51200)
I1012 11:19:27.579476  3059 net.cpp:159] Memory required for data: 4911360
I1012 11:19:27.579486  3059 layer_factory.hpp:77] Creating layer ip1
I1012 11:19:27.579506  3059 net.cpp:94] Creating Layer ip1
I1012 11:19:27.579536  3059 net.cpp:428] ip1 <- pool2
I1012 11:19:27.579555  3059 net.cpp:402] ip1 -> ip1
I1012 11:19:27.587749  3059 net.cpp:144] Setting up ip1
I1012 11:19:27.587782  3059 net.cpp:151] Top shape: 64 500 (32000)
I1012 11:19:27.587791  3059 net.cpp:159] Memory required for data: 5039360
I1012 11:19:27.587828  3059 layer_factory.hpp:77] Creating layer relu1
I1012 11:19:27.587847  3059 net.cpp:94] Creating Layer relu1
I1012 11:19:27.587857  3059 net.cpp:428] relu1 <- ip1
I1012 11:19:27.587872  3059 net.cpp:389] relu1 -> ip1 (in-place)
I1012 11:19:27.587891  3059 net.cpp:144] Setting up relu1
I1012 11:19:27.587904  3059 net.cpp:151] Top shape: 64 500 (32000)
I1012 11:19:27.587913  3059 net.cpp:159] Memory required for data: 5167360
I1012 11:19:27.587921  3059 layer_factory.hpp:77] Creating layer ip2
I1012 11:19:27.587936  3059 net.cpp:94] Creating Layer ip2
I1012 11:19:27.587944  3059 net.cpp:428] ip2 <- ip1
I1012 11:19:27.587959  3059 net.cpp:402] ip2 -> ip2
I1012 11:19:27.588302  3059 net.cpp:144] Setting up ip2
I1012 11:19:27.588318  3059 net.cpp:151] Top shape: 64 10 (640)
I1012 11:19:27.588327  3059 net.cpp:159] Memory required for data: 5169920
I1012 11:19:27.588347  3059 layer_factory.hpp:77] Creating layer loss
I1012 11:19:27.588366  3059 net.cpp:94] Creating Layer loss
I1012 11:19:27.588377  3059 net.cpp:428] loss <- ip2
I1012 11:19:27.588389  3059 net.cpp:428] loss <- label
I1012 11:19:27.588407  3059 net.cpp:402] loss -> loss
I1012 11:19:27.588439  3059 layer_factory.hpp:77] Creating layer loss
…
I1012 11:19:27.589308  3059 solver.cpp:184] Creating test net (#0) specified by net file: ./lenet_train_test_grouplasso.prototxt
I1012 11:19:27.589359  3059 net.cpp:316] The NetState phase (1) differed from the phase (0) specified by a rule in layer mnist
I1012 11:19:27.589565  3059 net.cpp:52] Initializing net from parameters: 
name: "LeNet"
state {
  phase: TEST
}
layer {
  name: "mnist"
  type: "Data"
  top: "data"
  top: "label"
  include {
    phase: TEST
  }
  transform_param {
    scale: 0.00390625
  }
  data_param {
    source: "./mnist_test_lmdb"
    batch_size: 100
    backend: LMDB
  }
}
layer {
  name: "conv1"
  type: "Convolution"
  bottom: "data"
  top: "conv1"
  param {
    lr_mult: 1
    decay_mult: 1
    breadth_decay_mult: 1
    kernel_shape_decay_mult: 1
    block_group_lasso {
      xdimen: 25
      ydimen: 5
      block_decay_mult: 1
    }
    special_shape_decay_mult: 1
  }
  param {
    lr_mult: 2
    decay_mult: 1
  }
  connectivity_mode: CONNECTED
  convolution_param {
    num_output: 20
    kernel_size: 5
    stride: 1
    weight_filler {
      type: "xavier"
    }
    bias_filler {
      type: "constant"
    }
  }
}
layer {
  name: "pool1"
  type: "Pooling"
  bottom: "conv1"
  top: "pool1"
  pooling_param {
    pool: MAX
    kernel_size: 2
    stride: 2
  }
}
layer {
  name: "conv2"
  type: "Convolution"
  bottom: "pool1"
  top: "conv2"
  param {
    lr_mult: 1
    decay_mult: 1
    breadth_decay_mult: 1
    kernel_shape_decay_mult: 1
    block_group_lasso {
      xdimen: 25
      ydimen: 5
      block_decay_mult: 1
    }
    special_shape_decay_mult: 1
  }
  param {
    lr_mult: 2
    decay_mult: 1
  }
  connectivity_mode: CONNECTED
  convolution_param {
    num_output: 50
    kernel_size: 5
    stride: 1
    weight_filler {
      type: "xavier"
    }
    bias_filler {
      type: "constant"
    }
  }
}
layer {
  name: "pool2"
  type: "Pooling"
  bottom: "conv2"
  top: "pool2"
  pooling_param {
    pool: MAX
    kernel_size: 2
    stride: 2
  }
}
layer {
  name: "ip1"
  type: "InnerProduct"
  bottom: "pool2"
  top: "ip1"
  param {
    lr_mult: 1
    decay_mult: 1
    breadth_decay_mult: 1
    kernel_shape_decay_mult: 1
    block_group_lasso {
      xdimen: 10
      ydimen: 10
      block_decay_mult: 1
    }
  }
  param {
    lr_mult: 2
    decay_mult: 1
  }
  inner_product_param {
    num_output: 500
    weight_filler {
      type: "xavier"
    }
    bias_filler {
      type: "constant"
    }
  }
}
layer {
  name: "relu1"
  type: "ReLU"
  bottom: "ip1"
  top: "ip1"
}
layer {
  name: "ip2"
  type: "InnerProduct"
  bottom: "ip1"
  top: "ip2"
  param {
    lr_mult: 1
    decay_mult: 1
    breadth_decay_mult: 1
    kernel_shape_decay_mult: 1
    block_group_lasso {
      xdimen: 10
      ydimen: 10
      block_decay_mult: 1
    }
  }
  param {
    lr_mult: 2
    decay_mult: 1
  }
  inner_product_param {
    num_output: 10
    weight_filler {
      type: "xavier"
    }
    bias_filler {
      type: "constant"
    }
  }
}
layer {
  name: "accuracy"
  type: "Accuracy"
  bottom: "ip2"
  bottom: "label"
  top: "accuracy"
  include {
    phase: TEST
  }
}
layer {
  name: "loss"
  type: "SoftmaxWithLoss"
  bottom: "ip2"
  bottom: "label"
  top: "loss"
}
I1012 11:19:27.589684  3059 layer_factory.hpp:77] Creating layer mnist
I1012 11:19:27.589890  3059 net.cpp:94] Creating Layer mnist
I1012 11:19:27.589920  3059 net.cpp:402] mnist -> data
I1012 11:19:27.589953  3059 net.cpp:402] mnist -> label
I1012 11:19:27.595134  3099 db_lmdb.cpp:38] Opened lmdb ./mnist_test_lmdb
I1012 11:19:27.596101  3059 data_layer.cpp:41] output data size: 100,1,28,28
I1012 11:19:27.603643  3059 net.cpp:144] Setting up mnist
I1012 11:19:27.603701  3059 net.cpp:151] Top shape: 100 1 28 28 (78400)
I1012 11:19:27.603714  3059 net.cpp:151] Top shape: 100 (100)
I1012 11:19:27.603724  3059 net.cpp:159] Memory required for data: 314000
I1012 11:19:27.603739  3059 layer_factory.hpp:77] Creating layer label_mnist_1_split
I1012 11:19:27.603765  3059 net.cpp:94] Creating Layer label_mnist_1_split
I1012 11:19:27.603775  3059 net.cpp:428] label_mnist_1_split <- label
I1012 11:19:27.603792  3059 net.cpp:402] label_mnist_1_split -> label_mnist_1_split_0
I1012 11:19:27.603816  3059 net.cpp:402] label_mnist_1_split -> label_mnist_1_split_1
I1012 11:19:27.604022  3059 net.cpp:144] Setting up label_mnist_1_split
I1012 11:19:27.604063  3059 net.cpp:151] Top shape: 100 (100)
I1012 11:19:27.604074  3059 net.cpp:151] Top shape: 100 (100)
I1012 11:19:27.604081  3059 net.cpp:159] Memory required for data: 314800
I1012 11:19:27.604091  3059 layer_factory.hpp:77] Creating layer conv1
I1012 11:19:27.604117  3059 net.cpp:94] Creating Layer conv1
I1012 11:19:27.604127  3059 net.cpp:428] conv1 <- data
I1012 11:19:27.604145  3059 net.cpp:402] conv1 -> conv1
I1012 11:19:27.612596  3059 net.cpp:144] Setting up conv1
I1012 11:19:27.612648  3059 net.cpp:151] Top shape: 100 20 24 24 (1152000)
I1012 11:19:27.612659  3059 net.cpp:159] Memory required for data: 4922800
I1012 11:19:27.612709  3059 layer_factory.hpp:77] Creating layer pool1
I1012 11:19:27.612732  3059 net.cpp:94] Creating Layer pool1
I1012 11:19:27.612743  3059 net.cpp:428] pool1 <- conv1
I1012 11:19:27.612758  3059 net.cpp:402] pool1 -> pool1
I1012 11:19:27.617278  3059 net.cpp:144] Setting up pool1
I1012 11:19:27.617314  3059 net.cpp:151] Top shape: 100 20 12 12 (288000)
I1012 11:19:27.617326  3059 net.cpp:159] Memory required for data: 6074800
I1012 11:19:27.617336  3059 layer_factory.hpp:77] Creating layer conv2
I1012 11:19:27.617367  3059 net.cpp:94] Creating Layer conv2
I1012 11:19:27.617379  3059 net.cpp:428] conv2 <- pool1
I1012 11:19:27.617398  3059 net.cpp:402] conv2 -> conv2
I1012 11:19:27.621235  3059 net.cpp:144] Setting up conv2
I1012 11:19:27.621266  3059 net.cpp:151] Top shape: 100 50 8 8 (320000)
I1012 11:19:27.621276  3059 net.cpp:159] Memory required for data: 7354800
I1012 11:19:27.621309  3059 layer_factory.hpp:77] Creating layer pool2
I1012 11:19:27.621325  3059 net.cpp:94] Creating Layer pool2
I1012 11:19:27.621335  3059 net.cpp:428] pool2 <- conv2
I1012 11:19:27.621348  3059 net.cpp:402] pool2 -> pool2
I1012 11:19:27.621652  3059 net.cpp:144] Setting up pool2
I1012 11:19:27.621670  3059 net.cpp:151] Top shape: 100 50 4 4 (80000)
I1012 11:19:27.621678  3059 net.cpp:159] Memory required for data: 7674800
I1012 11:19:27.621687  3059 layer_factory.hpp:77] Creating layer ip1
I1012 11:19:27.621704  3059 net.cpp:94] Creating Layer ip1
I1012 11:19:27.621714  3059 net.cpp:428] ip1 <- pool2
I1012 11:19:27.621729  3059 net.cpp:402] ip1 -> ip1
I1012 11:19:27.630523  3059 net.cpp:144] Setting up ip1
I1012 11:19:27.630553  3059 net.cpp:151] Top shape: 100 500 (50000)
I1012 11:19:27.630563  3059 net.cpp:159] Memory required for data: 7874800
I1012 11:19:27.630597  3059 layer_factory.hpp:77] Creating layer relu1
I1012 11:19:27.630614  3059 net.cpp:94] Creating Layer relu1
I1012 11:19:27.630623  3059 net.cpp:428] relu1 <- ip1
I1012 11:19:27.630637  3059 net.cpp:389] relu1 -> ip1 (in-place)
I1012 11:19:27.630653  3059 net.cpp:144] Setting up relu1
I1012 11:19:27.630663  3059 net.cpp:151] Top shape: 100 500 (50000)
I1012 11:19:27.630671  3059 net.cpp:159] Memory required for data: 8074800
I1012 11:19:27.630681  3059 layer_factory.hpp:77] Creating layer ip2
I1012 11:19:27.630697  3059 net.cpp:94] Creating Layer ip2
I1012 11:19:27.630707  3059 net.cpp:428] ip2 <- ip1
I1012 11:19:27.630731  3059 net.cpp:402] ip2 -> ip2
I1012 11:19:27.631110  3059 net.cpp:144] Setting up ip2
I1012 11:19:27.631125  3059 net.cpp:151] Top shape: 100 10 (1000)
I1012 11:19:27.631134  3059 net.cpp:159] Memory required for data: 8078800
I1012 11:19:27.631152  3059 layer_factory.hpp:77] Creating layer ip2_ip2_0_split
I1012 11:19:27.631168  3059 net.cpp:94] Creating Layer ip2_ip2_0_split
I1012 11:19:27.631177  3059 net.cpp:428] ip2_ip2_0_split <- ip2
I1012 11:19:27.631191  3059 net.cpp:402] ip2_ip2_0_split -> ip2_ip2_0_split_0
I1012 11:19:27.631207  3059 net.cpp:402] ip2_ip2_0_split -> ip2_ip2_0_split_1
I1012 11:19:27.631331  3059 net.cpp:144] Setting up ip2_ip2_0_split
I1012 11:19:27.631345  3059 net.cpp:151] Top shape: 100 10 (1000)
I1012 11:19:27.631356  3059 net.cpp:151] Top shape: 100 10 (1000)
I1012 11:19:27.631362  3059 net.cpp:159] Memory required for data: 8086800
I1012 11:19:27.631372  3059 layer_factory.hpp:77] Creating layer accuracy
I1012 11:19:27.631388  3059 net.cpp:94] Creating Layer accuracy
I1012 11:19:27.631397  3059 net.cpp:428] accuracy <- ip2_ip2_0_split_0
I1012 11:19:27.631408  3059 net.cpp:428] accuracy <- label_mnist_1_split_0
I1012 11:19:27.631422  3059 net.cpp:402] accuracy -> accuracy
…
