…
I1118 17:16:29.316581 20412 net.cpp:325] The NetState phase (0) differed from the phase (1) specified by a rule in layer accuracy
I1118 17:16:29.316812 20412 net.cpp:61] Initializing net from parameters: 
name: "CaffeNet"
state {
  phase: TRAIN
  level: 0
  stage: ""
}
layer {
  name: "data"
  type: "Data"
  top: "data"
  top: "label"
  include {
    phase: TRAIN
  }
  transform_param {
    mirror: true
    crop_size: 227
    mean_file: "/home/public/ImageNet12/imagenet_mean.binaryproto"
  }
  data_param {
    source: "/home/public/ImageNet12/ilsvrc12_train_lmdb"
    batch_size: 256
    backend: LMDB
  }
}
layer {
  name: "conv1"
  type: "Convolution"
  bottom: "data"
  top: "conv1"
  param {
    lr_mult: 1
    decay_mult: 1
  }
  param {
    lr_mult: 2
    decay_mult: 0
  }
  connectivity_mode: DISCONNECTED_GRPWISE
  convolution_param {
    num_output: 96
    kernel_size: 11
    stride: 4
    weight_filler {
      type: "gaussian"
      std: 0.01
    }
    bias_filler {
      type: "constant"
      value: 0
    }
  }
}
layer {
  name: "relu1"
  type: "ReLU"
  bottom: "conv1"
  top: "conv1"
}
layer {
  name: "pool1"
  type: "Pooling"
  bottom: "conv1"
  top: "pool1"
  pooling_param {
    pool: MAX
    kernel_size: 3
    stride: 2
  }
}
layer {
  name: "norm1"
  type: "LRN"
  bottom: "pool1"
  top: "norm1"
  lrn_param {
    local_size: 5
    alpha: 0.0001
    beta: 0.75
  }
}
layer {
  name: "conv2"
  type: "Convolution"
  bottom: "norm1"
  top: "conv2"
  param {
    lr_mult: 1
    decay_mult: 1
  }
  param {
    lr_mult: 2
    decay_mult: 0
  }
  connectivity_mode: DISCONNECTED_GRPWISE
  convolution_param {
    num_output: 256
    pad: 2
    kernel_size: 5
    group: 2
    weight_filler {
      type: "gaussian"
      std: 0.01
    }
    bias_filler {
      type: "constant"
      value: 1
    }
  }
}
layer {
  name: "relu2"
  type: "ReLU"
  bottom: "conv2"
  top: "conv2"
}
layer {
  name: "pool2"
  type: "Pooling"
  bottom: "conv2"
  top: "pool2"
  pooling_param {
    pool: MAX
    kernel_size: 3
    stride: 2
  }
}
layer {
  name: "norm2"
  type: "LRN"
  bottom: "pool2"
  top: "norm2"
  lrn_param {
    local_size: 5
    alpha: 0.0001
    beta: 0.75
  }
}
layer {
  name: "conv3"
  type: "Convolution"
  bottom: "norm2"
  top: "conv3"
  param {
    lr_mult: 1
    decay_mult: 1
  }
  param {
    lr_mult: 2
    decay_mult: 0
  }
  connectivity_mode: DISCONNECTED_GRPWISE
  convolution_param {
    num_output: 384
    pad: 1
    kernel_size: 3
    weight_filler {
      type: "gaussian"
      std: 0.01
    }
    bias_filler {
      type: "constant"
      value: 0
    }
  }
}
layer {
  name: "relu3"
  type: "ReLU"
  bottom: "conv3"
  top: "conv3"
}
layer {
  name: "conv4"
  type: "Convolution"
  bottom: "conv3"
  top: "conv4"
  param {
    lr_mult: 1
    decay_mult: 1
  }
  param {
    lr_mult: 2
    decay_mult: 0
  }
  connectivity_mode: DISCONNECTED_GRPWISE
  convolution_param {
    num_output: 384
    pad: 1
    kernel_size: 3
    group: 2
    weight_filler {
      type: "gaussian"
      std: 0.01
    }
    bias_filler {
      type: "constant"
      value: 1
    }
  }
}
layer {
  name: "relu4"
  type: "ReLU"
  bottom: "conv4"
  top: "conv4"
}
layer {
  name: "conv5"
  type: "Convolution"
  bottom: "conv4"
  top: "conv5"
  param {
    lr_mult: 1
    decay_mult: 0
  }
  param {
    lr_mult: 2
    decay_mult: 0
  }
  connectivity_mode: DISCONNECTED_GRPWISE
  convolution_param {
    num_output: 256
    pad: 1
    kernel_size: 3
    group: 2
    weight_filler {
      type: "gaussian"
      std: 0.01
    }
    bias_filler {
      type: "constant"
      value: 1
    }
  }
}
layer {
  name: "relu5"
  type: "ReLU"
  bottom: "conv5"
  top: "conv5"
}
layer {
  name: "pool5"
  type: "Pooling"
  bottom: "conv5"
  top: "pool5"
  pooling_param {
    pool: MAX
    kernel_size: 3
    stride: 2
  }
}
layer {
  name: "fc6"
  type: "InnerProduct"
  bottom: "pool5"
  top: "fc6"
  param {
    lr_mult: 1
    decay_mult: 1
  }
  param {
    lr_mult: 2
    decay_mult: 0
  }
  inner_product_param {
    num_output: 4096
    weight_filler {
      type: "gaussian"
      std: 0.005
    }
    bias_filler {
      type: "constant"
      value: 1
    }
  }
}
layer {
  name: "relu6"
  type: "ReLU"
  bottom: "fc6"
  top: "fc6"
}
layer {
  name: "drop6"
  type: "Dropout"
  bottom: "fc6"
  top: "fc6"
  dropout_param {
    dropout_ratio: 0.5
  }
}
layer {
  name: "fc7"
  type: "InnerProduct"
  bottom: "fc6"
  top: "fc7"
  param {
    lr_mult: 1
    decay_mult: 1
  }
  param {
    lr_mult: 2
    decay_mult: 0
  }
  inner_product_param {
    num_output: 4096
    weight_filler {
      type: "gaussian"
      std: 0.005
    }
    bias_filler {
      type: "constant"
      value: 1
    }
  }
}
layer {
  name: "relu7"
  type: "ReLU"
  bottom: "fc7"
  top: "fc7"
}
layer {
  name: "drop7"
  type: "Dropout"
  bottom: "fc7"
  top: "fc7"
  dropout_param {
    dropout_ratio: 0.5
  }
}
layer {
  name: "fc8"
  type: "InnerProduct"
  bottom: "fc7"
  top: "fc8"
  param {
    lr_mult: 1
    decay_mult: 1
  }
  param {
    lr_mult: 2
    decay_mult: 0
  }
  inner_product_param {
    num_output: 1000
    weight_filler {
      type: "gaussian"
      std: 0.01
    }
    bias_filler {
      type: "constant"
      value: 0
    }
  }
}
layer {
  name: "loss"
  type: "SoftmaxWithLoss"
  bottom: "fc8"
  bottom: "label"
  top: "loss"
}
I1118 17:16:29.316947 20412 layer_factory.hpp:77] Creating layer data
I1118 17:16:29.317631 20412 net.cpp:103] Creating Layer data
I1118 17:16:29.317668 20412 net.cpp:411] data -> data
I1118 17:16:29.317708 20412 net.cpp:411] data -> label
I1118 17:16:29.317800 20412 data_transformer.cpp:25] Loading mean file from: /home/public/ImageNet12/imagenet_mean.binaryproto
I1118 17:16:29.319725 20424 db_lmdb.cpp:35] Opened lmdb /home/public/ImageNet12/ilsvrc12_train_lmdb
I1118 17:16:29.812063 20412 data_layer.cpp:41] output data size: 256,3,227,227
I1118 17:16:30.108968 20412 net.cpp:153] Setting up data
I1118 17:16:30.109053 20412 net.cpp:160] Top shape: 256 3 227 227 (39574272)
I1118 17:16:30.109066 20412 net.cpp:160] Top shape: 256 (256)
I1118 17:16:30.109073 20412 net.cpp:168] Memory required for data: 158298112
I1118 17:16:30.109093 20412 layer_factory.hpp:77] Creating layer conv1
I1118 17:16:30.109136 20412 net.cpp:103] Creating Layer conv1
I1118 17:16:30.109150 20412 net.cpp:437] conv1 <- data
I1118 17:16:30.109175 20412 net.cpp:411] conv1 -> conv1
I1118 17:16:30.734750 20412 net.cpp:153] Setting up conv1
I1118 17:16:30.734836 20412 net.cpp:160] Top shape: 256 96 55 55 (74342400)
I1118 17:16:30.734848 20412 net.cpp:168] Memory required for data: 455667712
I1118 17:16:30.734905 20412 layer_factory.hpp:77] Creating layer relu1
I1118 17:16:30.734930 20412 net.cpp:103] Creating Layer relu1
I1118 17:16:30.734940 20412 net.cpp:437] relu1 <- conv1
I1118 17:16:30.734956 20412 net.cpp:398] relu1 -> conv1 (in-place)
I1118 17:16:30.735275 20412 net.cpp:153] Setting up relu1
I1118 17:16:30.735292 20412 net.cpp:160] Top shape: 256 96 55 55 (74342400)
I1118 17:16:30.735301 20412 net.cpp:168] Memory required for data: 753037312
I1118 17:16:30.735308 20412 layer_factory.hpp:77] Creating layer pool1
I1118 17:16:30.735322 20412 net.cpp:103] Creating Layer pool1
I1118 17:16:30.735330 20412 net.cpp:437] pool1 <- conv1
I1118 17:16:30.735343 20412 net.cpp:411] pool1 -> pool1
I1118 17:16:30.831850 20412 net.cpp:153] Setting up pool1
I1118 17:16:30.831969 20412 net.cpp:160] Top shape: 256 96 27 27 (17915904)
I1118 17:16:30.831995 20412 net.cpp:168] Memory required for data: 824700928
I1118 17:16:30.832010 20412 layer_factory.hpp:77] Creating layer norm1
I1118 17:16:30.832054 20412 net.cpp:103] Creating Layer norm1
I1118 17:16:30.832067 20412 net.cpp:437] norm1 <- pool1
I1118 17:16:30.832083 20412 net.cpp:411] norm1 -> norm1
I1118 17:16:30.941514 20412 net.cpp:153] Setting up norm1
I1118 17:16:30.941629 20412 net.cpp:160] Top shape: 256 96 27 27 (17915904)
I1118 17:16:30.941673 20412 net.cpp:168] Memory required for data: 896364544
I1118 17:16:30.941709 20412 layer_factory.hpp:77] Creating layer conv2
I1118 17:16:30.941761 20412 net.cpp:103] Creating Layer conv2
I1118 17:16:30.941778 20412 net.cpp:437] conv2 <- norm1
I1118 17:16:30.941808 20412 net.cpp:411] conv2 -> conv2
I1118 17:16:31.113345 20412 net.cpp:153] Setting up conv2
I1118 17:16:31.113409 20412 net.cpp:160] Top shape: 256 256 27 27 (47775744)
I1118 17:16:31.113417 20412 net.cpp:168] Memory required for data: 1087467520
I1118 17:16:31.113462 20412 layer_factory.hpp:77] Creating layer relu2
I1118 17:16:31.113483 20412 net.cpp:103] Creating Layer relu2
I1118 17:16:31.113494 20412 net.cpp:437] relu2 <- conv2
I1118 17:16:31.113510 20412 net.cpp:398] relu2 -> conv2 (in-place)
I1118 17:16:31.113832 20412 net.cpp:153] Setting up relu2
I1118 17:16:31.113852 20412 net.cpp:160] Top shape: 256 256 27 27 (47775744)
I1118 17:16:31.113860 20412 net.cpp:168] Memory required for data: 1278570496
I1118 17:16:31.113867 20412 layer_factory.hpp:77] Creating layer pool2
I1118 17:16:31.113881 20412 net.cpp:103] Creating Layer pool2
I1118 17:16:31.113889 20412 net.cpp:437] pool2 <- conv2
I1118 17:16:31.113903 20412 net.cpp:411] pool2 -> pool2
I1118 17:16:31.174618 20412 net.cpp:153] Setting up pool2
I1118 17:16:31.174690 20412 net.cpp:160] Top shape: 256 256 13 13 (11075584)
I1118 17:16:31.174698 20412 net.cpp:168] Memory required for data: 1322872832
I1118 17:16:31.174712 20412 layer_factory.hpp:77] Creating layer norm2
I1118 17:16:31.174744 20412 net.cpp:103] Creating Layer norm2
I1118 17:16:31.174757 20412 net.cpp:437] norm2 <- pool2
I1118 17:16:31.174777 20412 net.cpp:411] norm2 -> norm2
I1118 17:16:31.236093 20412 net.cpp:153] Setting up norm2
I1118 17:16:31.236166 20412 net.cpp:160] Top shape: 256 256 13 13 (11075584)
I1118 17:16:31.236174 20412 net.cpp:168] Memory required for data: 1367175168
I1118 17:16:31.236188 20412 layer_factory.hpp:77] Creating layer conv3
I1118 17:16:31.236227 20412 net.cpp:103] Creating Layer conv3
I1118 17:16:31.236239 20412 net.cpp:437] conv3 <- norm2
I1118 17:16:31.236260 20412 net.cpp:411] conv3 -> conv3
I1118 17:16:31.305246 20412 net.cpp:153] Setting up conv3
I1118 17:16:31.305306 20412 net.cpp:160] Top shape: 256 384 13 13 (16613376)
I1118 17:16:31.305315 20412 net.cpp:168] Memory required for data: 1433628672
I1118 17:16:31.305357 20412 layer_factory.hpp:77] Creating layer relu3
I1118 17:16:31.305379 20412 net.cpp:103] Creating Layer relu3
I1118 17:16:31.305390 20412 net.cpp:437] relu3 <- conv3
I1118 17:16:31.305407 20412 net.cpp:398] relu3 -> conv3 (in-place)
I1118 17:16:31.306100 20412 net.cpp:153] Setting up relu3
I1118 17:16:31.306123 20412 net.cpp:160] Top shape: 256 384 13 13 (16613376)
I1118 17:16:31.306130 20412 net.cpp:168] Memory required for data: 1500082176
I1118 17:16:31.306138 20412 layer_factory.hpp:77] Creating layer conv4
I1118 17:16:31.306165 20412 net.cpp:103] Creating Layer conv4
I1118 17:16:31.306174 20412 net.cpp:437] conv4 <- conv3
I1118 17:16:31.306186 20412 net.cpp:411] conv4 -> conv4
I1118 17:16:31.370839 20412 net.cpp:153] Setting up conv4
I1118 17:16:31.370899 20412 net.cpp:160] Top shape: 256 384 13 13 (16613376)
I1118 17:16:31.370908 20412 net.cpp:168] Memory required for data: 1566535680
I1118 17:16:31.370937 20412 layer_factory.hpp:77] Creating layer relu4
I1118 17:16:31.370959 20412 net.cpp:103] Creating Layer relu4
I1118 17:16:31.370970 20412 net.cpp:437] relu4 <- conv4
I1118 17:16:31.370985 20412 net.cpp:398] relu4 -> conv4 (in-place)
I1118 17:16:31.371675 20412 net.cpp:153] Setting up relu4
I1118 17:16:31.371712 20412 net.cpp:160] Top shape: 256 384 13 13 (16613376)
I1118 17:16:31.371721 20412 net.cpp:168] Memory required for data: 1632989184
I1118 17:16:31.371728 20412 layer_factory.hpp:77] Creating layer conv5
I1118 17:16:31.371754 20412 net.cpp:103] Creating Layer conv5
I1118 17:16:31.371762 20412 net.cpp:437] conv5 <- conv4
I1118 17:16:31.371776 20412 net.cpp:411] conv5 -> conv5
I1118 17:16:31.417876 20412 net.cpp:153] Setting up conv5
I1118 17:16:31.417937 20412 net.cpp:160] Top shape: 256 256 13 13 (11075584)
I1118 17:16:31.417946 20412 net.cpp:168] Memory required for data: 1677291520
I1118 17:16:31.417991 20412 layer_factory.hpp:77] Creating layer relu5
I1118 17:16:31.418014 20412 net.cpp:103] Creating Layer relu5
I1118 17:16:31.418025 20412 net.cpp:437] relu5 <- conv5
I1118 17:16:31.418041 20412 net.cpp:398] relu5 -> conv5 (in-place)
I1118 17:16:31.418359 20412 net.cpp:153] Setting up relu5
I1118 17:16:31.418380 20412 net.cpp:160] Top shape: 256 256 13 13 (11075584)
I1118 17:16:31.418387 20412 net.cpp:168] Memory required for data: 1721593856
I1118 17:16:31.418395 20412 layer_factory.hpp:77] Creating layer pool5
I1118 17:16:31.418411 20412 net.cpp:103] Creating Layer pool5
I1118 17:16:31.418418 20412 net.cpp:437] pool5 <- conv5
I1118 17:16:31.418431 20412 net.cpp:411] pool5 -> pool5
I1118 17:16:31.430738 20412 net.cpp:153] Setting up pool5
I1118 17:16:31.430794 20412 net.cpp:160] Top shape: 256 256 6 6 (2359296)
I1118 17:16:31.430804 20412 net.cpp:168] Memory required for data: 1731031040
I1118 17:16:31.430816 20412 layer_factory.hpp:77] Creating layer fc6
I1118 17:16:31.430848 20412 net.cpp:103] Creating Layer fc6
I1118 17:16:31.430861 20412 net.cpp:437] fc6 <- pool5
I1118 17:16:31.430881 20412 net.cpp:411] fc6 -> fc6
I1118 17:16:32.082778 20412 net.cpp:153] Setting up fc6
I1118 17:16:32.082854 20412 net.cpp:160] Top shape: 256 4096 (1048576)
I1118 17:16:32.082870 20412 net.cpp:168] Memory required for data: 1735225344
I1118 17:16:32.082903 20412 layer_factory.hpp:77] Creating layer relu6
I1118 17:16:32.082931 20412 net.cpp:103] Creating Layer relu6
I1118 17:16:32.082942 20412 net.cpp:437] relu6 <- fc6
I1118 17:16:32.082959 20412 net.cpp:398] relu6 -> fc6 (in-place)
I1118 17:16:32.083334 20412 net.cpp:153] Setting up relu6
I1118 17:16:32.083354 20412 net.cpp:160] Top shape: 256 4096 (1048576)
I1118 17:16:32.083361 20412 net.cpp:168] Memory required for data: 1739419648
I1118 17:16:32.083369 20412 layer_factory.hpp:77] Creating layer drop6
I1118 17:16:32.083386 20412 net.cpp:103] Creating Layer drop6
I1118 17:16:32.083395 20412 net.cpp:437] drop6 <- fc6
I1118 17:16:32.083406 20412 net.cpp:398] drop6 -> fc6 (in-place)
I1118 17:16:32.086135 20412 net.cpp:153] Setting up drop6
I1118 17:16:32.086158 20412 net.cpp:160] Top shape: 256 4096 (1048576)
I1118 17:16:32.086165 20412 net.cpp:168] Memory required for data: 1743613952
I1118 17:16:32.086174 20412 layer_factory.hpp:77] Creating layer fc7
I1118 17:16:32.086191 20412 net.cpp:103] Creating Layer fc7
I1118 17:16:32.086200 20412 net.cpp:437] fc7 <- fc6
I1118 17:16:32.086215 20412 net.cpp:411] fc7 -> fc7
I1118 17:16:32.358268 20412 net.cpp:153] Setting up fc7
I1118 17:16:32.358325 20412 net.cpp:160] Top shape: 256 4096 (1048576)
I1118 17:16:32.358333 20412 net.cpp:168] Memory required for data: 1747808256
I1118 17:16:32.358363 20412 layer_factory.hpp:77] Creating layer relu7
I1118 17:16:32.358382 20412 net.cpp:103] Creating Layer relu7
I1118 17:16:32.358393 20412 net.cpp:437] relu7 <- fc7
I1118 17:16:32.358408 20412 net.cpp:398] relu7 -> fc7 (in-place)
I1118 17:16:32.358719 20412 net.cpp:153] Setting up relu7
I1118 17:16:32.358736 20412 net.cpp:160] Top shape: 256 4096 (1048576)
I1118 17:16:32.358742 20412 net.cpp:168] Memory required for data: 1752002560
I1118 17:16:32.358749 20412 layer_factory.hpp:77] Creating layer drop7
I1118 17:16:32.358763 20412 net.cpp:103] Creating Layer drop7
I1118 17:16:32.358769 20412 net.cpp:437] drop7 <- fc7
I1118 17:16:32.358780 20412 net.cpp:398] drop7 -> fc7 (in-place)
I1118 17:16:32.361250 20412 net.cpp:153] Setting up drop7
I1118 17:16:32.361284 20412 net.cpp:160] Top shape: 256 4096 (1048576)
I1118 17:16:32.361289 20412 net.cpp:168] Memory required for data: 1756196864
I1118 17:16:32.361296 20412 layer_factory.hpp:77] Creating layer fc8
I1118 17:16:32.361312 20412 net.cpp:103] Creating Layer fc8
I1118 17:16:32.361320 20412 net.cpp:437] fc8 <- fc7
I1118 17:16:32.361330 20412 net.cpp:411] fc8 -> fc8
I1118 17:16:32.424454 20412 net.cpp:153] Setting up fc8
I1118 17:16:32.424510 20412 net.cpp:160] Top shape: 256 1000 (256000)
I1118 17:16:32.424516 20412 net.cpp:168] Memory required for data: 1757220864
I1118 17:16:32.424546 20412 layer_factory.hpp:77] Creating layer loss
I1118 17:16:32.424569 20412 net.cpp:103] Creating Layer loss
I1118 17:16:32.424579 20412 net.cpp:437] loss <- fc8
I1118 17:16:32.424592 20412 net.cpp:437] loss <- label
I1118 17:16:32.424609 20412 net.cpp:411] loss -> loss
I1118 17:16:32.424638 20412 layer_factory.hpp:77] Creating layer loss
…
I1118 17:16:32.427660 20412 net.cpp:325] The NetState phase (1) differed from the phase (0) specified by a rule in layer data
I1118 17:16:32.427865 20412 net.cpp:61] Initializing net from parameters: 
name: "CaffeNet"
state {
  phase: TEST
}
layer {
  name: "data"
  type: "Data"
  top: "data"
  top: "label"
  include {
    phase: TEST
  }
  transform_param {
    mirror: false
    crop_size: 227
    mean_file: "/home/public/ImageNet12/imagenet_mean.binaryproto"
  }
  data_param {
    source: "/home/public/ImageNet12/ilsvrc12_val_lmdb"
    batch_size: 50
    backend: LMDB
  }
}
layer {
  name: "conv1"
  type: "Convolution"
  bottom: "data"
  top: "conv1"
  param {
    lr_mult: 1
    decay_mult: 1
  }
  param {
    lr_mult: 2
    decay_mult: 0
  }
  connectivity_mode: DISCONNECTED_GRPWISE
  convolution_param {
    num_output: 96
    kernel_size: 11
    stride: 4
    weight_filler {
      type: "gaussian"
      std: 0.01
    }
    bias_filler {
      type: "constant"
      value: 0
    }
  }
}
layer {
  name: "relu1"
  type: "ReLU"
  bottom: "conv1"
  top: "conv1"
}
layer {
  name: "pool1"
  type: "Pooling"
  bottom: "conv1"
  top: "pool1"
  pooling_param {
    pool: MAX
    kernel_size: 3
    stride: 2
  }
}
layer {
  name: "norm1"
  type: "LRN"
  bottom: "pool1"
  top: "norm1"
  lrn_param {
    local_size: 5
    alpha: 0.0001
    beta: 0.75
  }
}
layer {
  name: "conv2"
  type: "Convolution"
  bottom: "norm1"
  top: "conv2"
  param {
    lr_mult: 1
    decay_mult: 1
  }
  param {
    lr_mult: 2
    decay_mult: 0
  }
  connectivity_mode: DISCONNECTED_GRPWISE
  convolution_param {
    num_output: 256
    pad: 2
    kernel_size: 5
    group: 2
    weight_filler {
      type: "gaussian"
      std: 0.01
    }
    bias_filler {
      type: "constant"
      value: 1
    }
  }
}
layer {
  name: "relu2"
  type: "ReLU"
  bottom: "conv2"
  top: "conv2"
}
layer {
  name: "pool2"
  type: "Pooling"
  bottom: "conv2"
  top: "pool2"
  pooling_param {
    pool: MAX
    kernel_size: 3
    stride: 2
  }
}
layer {
  name: "norm2"
  type: "LRN"
  bottom: "pool2"
  top: "norm2"
  lrn_param {
    local_size: 5
    alpha: 0.0001
    beta: 0.75
  }
}
layer {
  name: "conv3"
  type: "Convolution"
  bottom: "norm2"
  top: "conv3"
  param {
    lr_mult: 1
    decay_mult: 1
  }
  param {
    lr_mult: 2
    decay_mult: 0
  }
  connectivity_mode: DISCONNECTED_GRPWISE
  convolution_param {
    num_output: 384
    pad: 1
    kernel_size: 3
    weight_filler {
      type: "gaussian"
      std: 0.01
    }
    bias_filler {
      type: "constant"
      value: 0
    }
  }
}
layer {
  name: "relu3"
  type: "ReLU"
  bottom: "conv3"
  top: "conv3"
}
layer {
  name: "conv4"
  type: "Convolution"
  bottom: "conv3"
  top: "conv4"
  param {
    lr_mult: 1
    decay_mult: 1
  }
  param {
    lr_mult: 2
    decay_mult: 0
  }
  connectivity_mode: DISCONNECTED_GRPWISE
  convolution_param {
    num_output: 384
    pad: 1
    kernel_size: 3
    group: 2
    weight_filler {
      type: "gaussian"
      std: 0.01
    }
    bias_filler {
      type: "constant"
      value: 1
    }
  }
}
layer {
  name: "relu4"
  type: "ReLU"
  bottom: "conv4"
  top: "conv4"
}
layer {
  name: "conv5"
  type: "Convolution"
  bottom: "conv4"
  top: "conv5"
  param {
    lr_mult: 1
    decay_mult: 0
  }
  param {
    lr_mult: 2
    decay_mult: 0
  }
  connectivity_mode: DISCONNECTED_GRPWISE
  convolution_param {
    num_output: 256
    pad: 1
    kernel_size: 3
    group: 2
    weight_filler {
      type: "gaussian"
      std: 0.01
    }
    bias_filler {
      type: "constant"
      value: 1
    }
  }
}
layer {
  name: "relu5"
  type: "ReLU"
  bottom: "conv5"
  top: "conv5"
}
layer {
  name: "pool5"
  type: "Pooling"
  bottom: "conv5"
  top: "pool5"
  pooling_param {
    pool: MAX
    kernel_size: 3
    stride: 2
  }
}
layer {
  name: "fc6"
  type: "InnerProduct"
  bottom: "pool5"
  top: "fc6"
  param {
    lr_mult: 1
    decay_mult: 1
  }
  param {
    lr_mult: 2
    decay_mult: 0
  }
  inner_product_param {
    num_output: 4096
    weight_filler {
      type: "gaussian"
      std: 0.005
    }
    bias_filler {
      type: "constant"
      value: 1
    }
  }
}
layer {
  name: "relu6"
  type: "ReLU"
  bottom: "fc6"
  top: "fc6"
}
layer {
  name: "drop6"
  type: "Dropout"
  bottom: "fc6"
  top: "fc6"
  dropout_param {
    dropout_ratio: 0.5
  }
}
layer {
  name: "fc7"
  type: "InnerProduct"
  bottom: "fc6"
  top: "fc7"
  param {
    lr_mult: 1
    decay_mult: 1
  }
  param {
    lr_mult: 2
    decay_mult: 0
  }
  inner_product_param {
    num_output: 4096
    weight_filler {
      type: "gaussian"
      std: 0.005
    }
    bias_filler {
      type: "constant"
      value: 1
    }
  }
}
layer {
  name: "relu7"
  type: "ReLU"
  bottom: "fc7"
  top: "fc7"
}
layer {
  name: "drop7"
  type: "Dropout"
  bottom: "fc7"
  top: "fc7"
  dropout_param {
    dropout_ratio: 0.5
  }
}
layer {
  name: "fc8"
  type: "InnerProduct"
  bottom: "fc7"
  top: "fc8"
  param {
    lr_mult: 1
    decay_mult: 1
  }
  param {
    lr_mult: 2
    decay_mult: 0
  }
  inner_product_param {
    num_output: 1000
    weight_filler {
      type: "gaussian"
      std: 0.01
    }
    bias_filler {
      type: "constant"
      value: 0
    }
  }
}
layer {
  name: "accuracy"
  type: "Accuracy"
  bottom: "fc8"
  bottom: "label"
  top: "accuracy"
  include {
    phase: TEST
  }
}
layer {
  name: "loss"
  type: "SoftmaxWithLoss"
  bottom: "fc8"
  bottom: "label"
  top: "loss"
}
I1118 17:16:32.428007 20412 layer_factory.hpp:77] Creating layer data
I1118 17:16:32.428131 20412 net.cpp:103] Creating Layer data
I1118 17:16:32.428148 20412 net.cpp:411] data -> data
I1118 17:16:32.428164 20412 net.cpp:411] data -> label
I1118 17:16:32.428177 20412 data_transformer.cpp:25] Loading mean file from: /home/public/ImageNet12/imagenet_mean.binaryproto
I1118 17:16:32.430248 20426 db_lmdb.cpp:35] Opened lmdb /home/public/ImageNet12/ilsvrc12_val_lmdb
I1118 17:16:32.543823 20412 data_layer.cpp:41] output data size: 50,3,227,227
I1118 17:16:32.610357 20412 net.cpp:153] Setting up data
I1118 17:16:32.610409 20412 net.cpp:160] Top shape: 50 3 227 227 (7729350)
I1118 17:16:32.610419 20412 net.cpp:160] Top shape: 50 (50)
I1118 17:16:32.610424 20412 net.cpp:168] Memory required for data: 30917600
I1118 17:16:32.610440 20412 layer_factory.hpp:77] Creating layer label_data_1_split
I1118 17:16:32.610462 20412 net.cpp:103] Creating Layer label_data_1_split
I1118 17:16:32.610472 20412 net.cpp:437] label_data_1_split <- label
I1118 17:16:32.610488 20412 net.cpp:411] label_data_1_split -> label_data_1_split_0
I1118 17:16:32.610508 20412 net.cpp:411] label_data_1_split -> label_data_1_split_1
I1118 17:16:32.611004 20412 net.cpp:153] Setting up label_data_1_split
I1118 17:16:32.611066 20412 net.cpp:160] Top shape: 50 (50)
I1118 17:16:32.611079 20412 net.cpp:160] Top shape: 50 (50)
I1118 17:16:32.611088 20412 net.cpp:168] Memory required for data: 30918000
I1118 17:16:32.611102 20412 layer_factory.hpp:77] Creating layer conv1
I1118 17:16:32.611140 20412 net.cpp:103] Creating Layer conv1
I1118 17:16:32.611155 20412 net.cpp:437] conv1 <- data
I1118 17:16:32.611173 20412 net.cpp:411] conv1 -> conv1
I1118 17:16:32.678594 20412 net.cpp:153] Setting up conv1
I1118 17:16:32.678668 20412 net.cpp:160] Top shape: 50 96 55 55 (14520000)
I1118 17:16:32.678679 20412 net.cpp:168] Memory required for data: 88998000
I1118 17:16:32.678738 20412 layer_factory.hpp:77] Creating layer relu1
I1118 17:16:32.678762 20412 net.cpp:103] Creating Layer relu1
I1118 17:16:32.678774 20412 net.cpp:437] relu1 <- conv1
I1118 17:16:32.678791 20412 net.cpp:398] relu1 -> conv1 (in-place)
I1118 17:16:32.679165 20412 net.cpp:153] Setting up relu1
I1118 17:16:32.679188 20412 net.cpp:160] Top shape: 50 96 55 55 (14520000)
I1118 17:16:32.679198 20412 net.cpp:168] Memory required for data: 147078000
I1118 17:16:32.679208 20412 layer_factory.hpp:77] Creating layer pool1
I1118 17:16:32.679227 20412 net.cpp:103] Creating Layer pool1
I1118 17:16:32.679239 20412 net.cpp:437] pool1 <- conv1
I1118 17:16:32.679253 20412 net.cpp:411] pool1 -> pool1
I1118 17:16:32.703681 20412 net.cpp:153] Setting up pool1
I1118 17:16:32.703764 20412 net.cpp:160] Top shape: 50 96 27 27 (3499200)
I1118 17:16:32.703775 20412 net.cpp:168] Memory required for data: 161074800
I1118 17:16:32.703790 20412 layer_factory.hpp:77] Creating layer norm1
I1118 17:16:32.703816 20412 net.cpp:103] Creating Layer norm1
I1118 17:16:32.703829 20412 net.cpp:437] norm1 <- pool1
I1118 17:16:32.703847 20412 net.cpp:411] norm1 -> norm1
I1118 17:16:32.725980 20412 net.cpp:153] Setting up norm1
I1118 17:16:32.726059 20412 net.cpp:160] Top shape: 50 96 27 27 (3499200)
I1118 17:16:32.726068 20412 net.cpp:168] Memory required for data: 175071600
I1118 17:16:32.726083 20412 layer_factory.hpp:77] Creating layer conv2
I1118 17:16:32.726116 20412 net.cpp:103] Creating Layer conv2
I1118 17:16:32.726127 20412 net.cpp:437] conv2 <- norm1
I1118 17:16:32.726167 20412 net.cpp:411] conv2 -> conv2
I1118 17:16:32.769405 20412 net.cpp:153] Setting up conv2
I1118 17:16:32.769479 20412 net.cpp:160] Top shape: 50 256 27 27 (9331200)
I1118 17:16:32.769486 20412 net.cpp:168] Memory required for data: 212396400
I1118 17:16:32.769527 20412 layer_factory.hpp:77] Creating layer relu2
I1118 17:16:32.769547 20412 net.cpp:103] Creating Layer relu2
I1118 17:16:32.769557 20412 net.cpp:437] relu2 <- conv2
I1118 17:16:32.769572 20412 net.cpp:398] relu2 -> conv2 (in-place)
I1118 17:16:32.769884 20412 net.cpp:153] Setting up relu2
I1118 17:16:32.769904 20412 net.cpp:160] Top shape: 50 256 27 27 (9331200)
I1118 17:16:32.769912 20412 net.cpp:168] Memory required for data: 249721200
I1118 17:16:32.769920 20412 layer_factory.hpp:77] Creating layer pool2
I1118 17:16:32.769937 20412 net.cpp:103] Creating Layer pool2
I1118 17:16:32.769945 20412 net.cpp:437] pool2 <- conv2
I1118 17:16:32.769958 20412 net.cpp:411] pool2 -> pool2
I1118 17:16:32.781003 20412 net.cpp:153] Setting up pool2
I1118 17:16:32.781057 20412 net.cpp:160] Top shape: 50 256 13 13 (2163200)
I1118 17:16:32.781066 20412 net.cpp:168] Memory required for data: 258374000
I1118 17:16:32.781077 20412 layer_factory.hpp:77] Creating layer norm2
I1118 17:16:32.781098 20412 net.cpp:103] Creating Layer norm2
I1118 17:16:32.781107 20412 net.cpp:437] norm2 <- pool2
I1118 17:16:32.781123 20412 net.cpp:411] norm2 -> norm2
I1118 17:16:32.792430 20412 net.cpp:153] Setting up norm2
I1118 17:16:32.792496 20412 net.cpp:160] Top shape: 50 256 13 13 (2163200)
I1118 17:16:32.792505 20412 net.cpp:168] Memory required for data: 267026800
I1118 17:16:32.792518 20412 layer_factory.hpp:77] Creating layer conv3
I1118 17:16:32.792547 20412 net.cpp:103] Creating Layer conv3
I1118 17:16:32.792557 20412 net.cpp:437] conv3 <- norm2
I1118 17:16:32.792574 20412 net.cpp:411] conv3 -> conv3
I1118 17:16:32.824779 20412 net.cpp:153] Setting up conv3
I1118 17:16:32.824841 20412 net.cpp:160] Top shape: 50 384 13 13 (3244800)
I1118 17:16:32.824848 20412 net.cpp:168] Memory required for data: 280006000
I1118 17:16:32.824887 20412 layer_factory.hpp:77] Creating layer relu3
I1118 17:16:32.824906 20412 net.cpp:103] Creating Layer relu3
I1118 17:16:32.824916 20412 net.cpp:437] relu3 <- conv3
I1118 17:16:32.824931 20412 net.cpp:398] relu3 -> conv3 (in-place)
I1118 17:16:32.825722 20412 net.cpp:153] Setting up relu3
I1118 17:16:32.825744 20412 net.cpp:160] Top shape: 50 384 13 13 (3244800)
I1118 17:16:32.825752 20412 net.cpp:168] Memory required for data: 292985200
I1118 17:16:32.825760 20412 layer_factory.hpp:77] Creating layer conv4
I1118 17:16:32.825783 20412 net.cpp:103] Creating Layer conv4
I1118 17:16:32.825791 20412 net.cpp:437] conv4 <- conv3
I1118 17:16:32.825804 20412 net.cpp:411] conv4 -> conv4
I1118 17:16:32.854339 20412 net.cpp:153] Setting up conv4
I1118 17:16:32.854398 20412 net.cpp:160] Top shape: 50 384 13 13 (3244800)
I1118 17:16:32.854406 20412 net.cpp:168] Memory required for data: 305964400
I1118 17:16:32.854434 20412 layer_factory.hpp:77] Creating layer relu4
I1118 17:16:32.854454 20412 net.cpp:103] Creating Layer relu4
I1118 17:16:32.854465 20412 net.cpp:437] relu4 <- conv4
I1118 17:16:32.854480 20412 net.cpp:398] relu4 -> conv4 (in-place)
I1118 17:16:32.855278 20412 net.cpp:153] Setting up relu4
I1118 17:16:32.855298 20412 net.cpp:160] Top shape: 50 384 13 13 (3244800)
I1118 17:16:32.855305 20412 net.cpp:168] Memory required for data: 318943600
I1118 17:16:32.855314 20412 layer_factory.hpp:77] Creating layer conv5
I1118 17:16:32.855337 20412 net.cpp:103] Creating Layer conv5
I1118 17:16:32.855345 20412 net.cpp:437] conv5 <- conv4
I1118 17:16:32.855358 20412 net.cpp:411] conv5 -> conv5
I1118 17:16:32.876097 20412 net.cpp:153] Setting up conv5
I1118 17:16:32.876157 20412 net.cpp:160] Top shape: 50 256 13 13 (2163200)
I1118 17:16:32.876165 20412 net.cpp:168] Memory required for data: 327596400
I1118 17:16:32.876204 20412 layer_factory.hpp:77] Creating layer relu5
I1118 17:16:32.876222 20412 net.cpp:103] Creating Layer relu5
I1118 17:16:32.876248 20412 net.cpp:437] relu5 <- conv5
I1118 17:16:32.876274 20412 net.cpp:398] relu5 -> conv5 (in-place)
I1118 17:16:32.877059 20412 net.cpp:153] Setting up relu5
I1118 17:16:32.877081 20412 net.cpp:160] Top shape: 50 256 13 13 (2163200)
I1118 17:16:32.877089 20412 net.cpp:168] Memory required for data: 336249200
I1118 17:16:32.877097 20412 layer_factory.hpp:77] Creating layer pool5
I1118 17:16:32.877115 20412 net.cpp:103] Creating Layer pool5
I1118 17:16:32.877122 20412 net.cpp:437] pool5 <- conv5
I1118 17:16:32.877135 20412 net.cpp:411] pool5 -> pool5
I1118 17:16:32.879976 20412 net.cpp:153] Setting up pool5
I1118 17:16:32.879999 20412 net.cpp:160] Top shape: 50 256 6 6 (460800)
I1118 17:16:32.880007 20412 net.cpp:168] Memory required for data: 338092400
I1118 17:16:32.880015 20412 layer_factory.hpp:77] Creating layer fc6
I1118 17:16:32.880031 20412 net.cpp:103] Creating Layer fc6
I1118 17:16:32.880040 20412 net.cpp:437] fc6 <- pool5
I1118 17:16:32.880053 20412 net.cpp:411] fc6 -> fc6
I1118 17:16:33.563832 20412 net.cpp:153] Setting up fc6
I1118 17:16:33.563902 20412 net.cpp:160] Top shape: 50 4096 (204800)
I1118 17:16:33.563911 20412 net.cpp:168] Memory required for data: 338911600
I1118 17:16:33.563944 20412 layer_factory.hpp:77] Creating layer relu6
I1118 17:16:33.563966 20412 net.cpp:103] Creating Layer relu6
I1118 17:16:33.563982 20412 net.cpp:437] relu6 <- fc6
I1118 17:16:33.563997 20412 net.cpp:398] relu6 -> fc6 (in-place)
I1118 17:16:33.564352 20412 net.cpp:153] Setting up relu6
I1118 17:16:33.564371 20412 net.cpp:160] Top shape: 50 4096 (204800)
I1118 17:16:33.564378 20412 net.cpp:168] Memory required for data: 339730800
I1118 17:16:33.564386 20412 layer_factory.hpp:77] Creating layer drop6
I1118 17:16:33.564400 20412 net.cpp:103] Creating Layer drop6
I1118 17:16:33.564409 20412 net.cpp:437] drop6 <- fc6
I1118 17:16:33.564420 20412 net.cpp:398] drop6 -> fc6 (in-place)
I1118 17:16:33.564723 20412 net.cpp:153] Setting up drop6
I1118 17:16:33.564740 20412 net.cpp:160] Top shape: 50 4096 (204800)
I1118 17:16:33.564749 20412 net.cpp:168] Memory required for data: 340550000
I1118 17:16:33.564755 20412 layer_factory.hpp:77] Creating layer fc7
I1118 17:16:33.564774 20412 net.cpp:103] Creating Layer fc7
I1118 17:16:33.564780 20412 net.cpp:437] fc7 <- fc6
I1118 17:16:33.564793 20412 net.cpp:411] fc7 -> fc7
I1118 17:16:33.853094 20412 net.cpp:153] Setting up fc7
I1118 17:16:33.853160 20412 net.cpp:160] Top shape: 50 4096 (204800)
I1118 17:16:33.853169 20412 net.cpp:168] Memory required for data: 341369200
I1118 17:16:33.853200 20412 layer_factory.hpp:77] Creating layer relu7
I1118 17:16:33.853221 20412 net.cpp:103] Creating Layer relu7
I1118 17:16:33.853233 20412 net.cpp:437] relu7 <- fc7
I1118 17:16:33.853248 20412 net.cpp:398] relu7 -> fc7 (in-place)
I1118 17:16:33.853590 20412 net.cpp:153] Setting up relu7
I1118 17:16:33.853610 20412 net.cpp:160] Top shape: 50 4096 (204800)
I1118 17:16:33.853617 20412 net.cpp:168] Memory required for data: 342188400
I1118 17:16:33.853624 20412 layer_factory.hpp:77] Creating layer drop7
I1118 17:16:33.853651 20412 net.cpp:103] Creating Layer drop7
I1118 17:16:33.853659 20412 net.cpp:437] drop7 <- fc7
I1118 17:16:33.853672 20412 net.cpp:398] drop7 -> fc7 (in-place)
I1118 17:16:33.853996 20412 net.cpp:153] Setting up drop7
I1118 17:16:33.854013 20412 net.cpp:160] Top shape: 50 4096 (204800)
I1118 17:16:33.854020 20412 net.cpp:168] Memory required for data: 343007600
I1118 17:16:33.854028 20412 layer_factory.hpp:77] Creating layer fc8
I1118 17:16:33.854045 20412 net.cpp:103] Creating Layer fc8
I1118 17:16:33.854053 20412 net.cpp:437] fc8 <- fc7
I1118 17:16:33.854065 20412 net.cpp:411] fc8 -> fc8
I1118 17:16:33.964241 20412 net.cpp:153] Setting up fc8
I1118 17:16:33.964324 20412 net.cpp:160] Top shape: 50 1000 (50000)
I1118 17:16:33.964336 20412 net.cpp:168] Memory required for data: 343207600
I1118 17:16:33.964371 20412 layer_factory.hpp:77] Creating layer fc8_fc8_0_split
I1118 17:16:33.964391 20412 net.cpp:103] Creating Layer fc8_fc8_0_split
I1118 17:16:33.964403 20412 net.cpp:437] fc8_fc8_0_split <- fc8
I1118 17:16:33.964438 20412 net.cpp:411] fc8_fc8_0_split -> fc8_fc8_0_split_0
I1118 17:16:33.964476 20412 net.cpp:411] fc8_fc8_0_split -> fc8_fc8_0_split_1
I1118 17:16:33.964733 20412 net.cpp:153] Setting up fc8_fc8_0_split
I1118 17:16:33.964756 20412 net.cpp:160] Top shape: 50 1000 (50000)
I1118 17:16:33.964766 20412 net.cpp:160] Top shape: 50 1000 (50000)
I1118 17:16:33.964774 20412 net.cpp:168] Memory required for data: 343607600
I1118 17:16:33.964783 20412 layer_factory.hpp:77] Creating layer accuracy
I1118 17:16:33.964800 20412 net.cpp:103] Creating Layer accuracy
I1118 17:16:33.964809 20412 net.cpp:437] accuracy <- fc8_fc8_0_split_0
I1118 17:16:33.964821 20412 net.cpp:437] accuracy <- label_data_1_split_0
I1118 17:16:33.964835 20412 net.cpp:411] accuracy -> accuracy
…
