…
I1118 17:18:23.927989 20478 net.cpp:325] The NetState phase (0) differed from the phase (1) specified by a rule in layer accuracy
I1118 17:18:23.928215 20478 net.cpp:61] Initializing net from parameters: 
name: "CaffeNet"
state {
  phase: TRAIN
  level: 0
  stage: ""
}
layer {
  name: "data"
  type: "Data"
  top: "data"
  top: "label"
  include {
    phase: TRAIN
  }
  transform_param {
    mirror: true
    crop_size: 227
    mean_file: "/home/public/ImageNet12_Copy1/imagenet_mean.binaryproto"
  }
  data_param {
    source: "/home/public/ImageNet12_Copy1/ilsvrc12_train_lmdb"
    batch_size: 256
    backend: LMDB
  }
}
layer {
  name: "conv1"
  type: "Convolution"
  bottom: "data"
  top: "conv1"
  param {
    lr_mult: 1
    decay_mult: 1
  }
  param {
    lr_mult: 2
    decay_mult: 0
  }
  connectivity_mode: DISCONNECTED_GRPWISE
  convolution_param {
    num_output: 96
    kernel_size: 11
    stride: 4
    weight_filler {
      type: "gaussian"
      std: 0.01
    }
    bias_filler {
      type: "constant"
      value: 0
    }
  }
}
layer {
  name: "relu1"
  type: "ReLU"
  bottom: "conv1"
  top: "conv1"
}
layer {
  name: "pool1"
  type: "Pooling"
  bottom: "conv1"
  top: "pool1"
  pooling_param {
    pool: MAX
    kernel_size: 3
    stride: 2
  }
}
layer {
  name: "norm1"
  type: "LRN"
  bottom: "pool1"
  top: "norm1"
  lrn_param {
    local_size: 5
    alpha: 0.0001
    beta: 0.75
  }
}
layer {
  name: "conv2"
  type: "Convolution"
  bottom: "norm1"
  top: "conv2"
  param {
    lr_mult: 1
    decay_mult: 1
  }
  param {
    lr_mult: 2
    decay_mult: 0
  }
  connectivity_mode: DISCONNECTED_GRPWISE
  convolution_param {
    num_output: 256
    pad: 2
    kernel_size: 5
    group: 2
    weight_filler {
      type: "gaussian"
      std: 0.01
    }
    bias_filler {
      type: "constant"
      value: 1
    }
  }
}
layer {
  name: "relu2"
  type: "ReLU"
  bottom: "conv2"
  top: "conv2"
}
layer {
  name: "pool2"
  type: "Pooling"
  bottom: "conv2"
  top: "pool2"
  pooling_param {
    pool: MAX
    kernel_size: 3
    stride: 2
  }
}
layer {
  name: "norm2"
  type: "LRN"
  bottom: "pool2"
  top: "norm2"
  lrn_param {
    local_size: 5
    alpha: 0.0001
    beta: 0.75
  }
}
layer {
  name: "conv3"
  type: "Convolution"
  bottom: "norm2"
  top: "conv3"
  param {
    lr_mult: 1
    decay_mult: 1
  }
  param {
    lr_mult: 2
    decay_mult: 0
  }
  connectivity_mode: DISCONNECTED_GRPWISE
  convolution_param {
    num_output: 384
    pad: 1
    kernel_size: 3
    weight_filler {
      type: "gaussian"
      std: 0.01
    }
    bias_filler {
      type: "constant"
      value: 0
    }
  }
}
layer {
  name: "relu3"
  type: "ReLU"
  bottom: "conv3"
  top: "conv3"
}
layer {
  name: "conv4"
  type: "Convolution"
  bottom: "conv3"
  top: "conv4"
  param {
    lr_mult: 1
    decay_mult: 1
  }
  param {
    lr_mult: 2
    decay_mult: 0
  }
  connectivity_mode: DISCONNECTED_GRPWISE
  convolution_param {
    num_output: 384
    pad: 1
    kernel_size: 3
    group: 2
    weight_filler {
      type: "gaussian"
      std: 0.01
    }
    bias_filler {
      type: "constant"
      value: 1
    }
  }
}
layer {
  name: "relu4"
  type: "ReLU"
  bottom: "conv4"
  top: "conv4"
}
layer {
  name: "conv5"
  type: "Convolution"
  bottom: "conv4"
  top: "conv5"
  param {
    lr_mult: 1
    decay_mult: 0
  }
  param {
    lr_mult: 2
    decay_mult: 0
  }
  connectivity_mode: DISCONNECTED_GRPWISE
  convolution_param {
    num_output: 256
    pad: 1
    kernel_size: 3
    group: 2
    weight_filler {
      type: "gaussian"
      std: 0.01
    }
    bias_filler {
      type: "constant"
      value: 1
    }
  }
}
layer {
  name: "relu5"
  type: "ReLU"
  bottom: "conv5"
  top: "conv5"
}
layer {
  name: "pool5"
  type: "Pooling"
  bottom: "conv5"
  top: "pool5"
  pooling_param {
    pool: MAX
    kernel_size: 3
    stride: 2
  }
}
layer {
  name: "fc6"
  type: "InnerProduct"
  bottom: "pool5"
  top: "fc6"
  param {
    lr_mult: 1
    decay_mult: 1
  }
  param {
    lr_mult: 2
    decay_mult: 0
  }
  inner_product_param {
    num_output: 4096
    weight_filler {
      type: "gaussian"
      std: 0.005
    }
    bias_filler {
      type: "constant"
      value: 1
    }
  }
}
layer {
  name: "relu6"
  type: "ReLU"
  bottom: "fc6"
  top: "fc6"
}
layer {
  name: "drop6"
  type: "Dropout"
  bottom: "fc6"
  top: "fc6"
  dropout_param {
    dropout_ratio: 0.5
  }
}
layer {
  name: "fc7"
  type: "InnerProduct"
  bottom: "fc6"
  top: "fc7"
  param {
    lr_mult: 1
    decay_mult: 1
  }
  param {
    lr_mult: 2
    decay_mult: 0
  }
  inner_product_param {
    num_output: 4096
    weight_filler {
      type: "gaussian"
      std: 0.005
    }
    bias_filler {
      type: "constant"
      value: 1
    }
  }
}
layer {
  name: "relu7"
  type: "ReLU"
  bottom: "fc7"
  top: "fc7"
}
layer {
  name: "drop7"
  type: "Dropout"
  bottom: "fc7"
  top: "fc7"
  dropout_param {
    dropout_ratio: 0.5
  }
}
layer {
  name: "fc8"
  type: "InnerProduct"
  bottom: "fc7"
  top: "fc8"
  param {
    lr_mult: 1
    decay_mult: 1
  }
  param {
    lr_mult: 2
    decay_mult: 0
  }
  inner_product_param {
    num_output: 1000
    weight_filler {
      type: "gaussian"
      std: 0.01
    }
    bias_filler {
      type: "constant"
      value: 0
    }
  }
}
layer {
  name: "loss"
  type: "SoftmaxWithLoss"
  bottom: "fc8"
  bottom: "label"
  top: "loss"
}
I1118 17:18:23.928352 20478 layer_factory.hpp:77] Creating layer data
I1118 17:18:23.929440 20478 net.cpp:103] Creating Layer data
I1118 17:18:23.929463 20478 net.cpp:411] data -> data
I1118 17:18:23.929499 20478 net.cpp:411] data -> label
I1118 17:18:23.929522 20478 data_transformer.cpp:25] Loading mean file from: /home/public/ImageNet12_Copy1/imagenet_mean.binaryproto
I1118 17:18:23.951532 20484 db_lmdb.cpp:35] Opened lmdb /home/public/ImageNet12_Copy1/ilsvrc12_train_lmdb
I1118 17:18:24.402293 20478 data_layer.cpp:41] output data size: 256,3,227,227
I1118 17:18:24.684703 20478 net.cpp:153] Setting up data
I1118 17:18:24.684777 20478 net.cpp:160] Top shape: 256 3 227 227 (39574272)
I1118 17:18:24.684790 20478 net.cpp:160] Top shape: 256 (256)
I1118 17:18:24.684798 20478 net.cpp:168] Memory required for data: 158298112
I1118 17:18:24.684816 20478 layer_factory.hpp:77] Creating layer conv1
I1118 17:18:24.684861 20478 net.cpp:103] Creating Layer conv1
I1118 17:18:24.684876 20478 net.cpp:437] conv1 <- data
I1118 17:18:24.684900 20478 net.cpp:411] conv1 -> conv1
I1118 17:18:24.874460 20487 blocking_queue.cpp:50] Waiting for data
I1118 17:18:25.195711 20478 net.cpp:153] Setting up conv1
I1118 17:18:25.195777 20478 net.cpp:160] Top shape: 256 96 55 55 (74342400)
I1118 17:18:25.195786 20478 net.cpp:168] Memory required for data: 455667712
I1118 17:18:25.195843 20478 layer_factory.hpp:77] Creating layer relu1
I1118 17:18:25.195868 20478 net.cpp:103] Creating Layer relu1
I1118 17:18:25.195878 20478 net.cpp:437] relu1 <- conv1
I1118 17:18:25.195889 20478 net.cpp:398] relu1 -> conv1 (in-place)
I1118 17:18:25.196364 20478 net.cpp:153] Setting up relu1
I1118 17:18:25.196384 20478 net.cpp:160] Top shape: 256 96 55 55 (74342400)
I1118 17:18:25.196393 20478 net.cpp:168] Memory required for data: 753037312
I1118 17:18:25.196400 20478 layer_factory.hpp:77] Creating layer pool1
I1118 17:18:25.196413 20478 net.cpp:103] Creating Layer pool1
I1118 17:18:25.196420 20478 net.cpp:437] pool1 <- conv1
I1118 17:18:25.196442 20478 net.cpp:411] pool1 -> pool1
I1118 17:18:25.288328 20478 net.cpp:153] Setting up pool1
I1118 17:18:25.288385 20478 net.cpp:160] Top shape: 256 96 27 27 (17915904)
I1118 17:18:25.288394 20478 net.cpp:168] Memory required for data: 824700928
I1118 17:18:25.288406 20478 layer_factory.hpp:77] Creating layer norm1
I1118 17:18:25.288437 20478 net.cpp:103] Creating Layer norm1
I1118 17:18:25.288450 20478 net.cpp:437] norm1 <- pool1
I1118 17:18:25.288466 20478 net.cpp:411] norm1 -> norm1
I1118 17:18:25.391443 20478 net.cpp:153] Setting up norm1
I1118 17:18:25.391543 20478 net.cpp:160] Top shape: 256 96 27 27 (17915904)
I1118 17:18:25.391553 20478 net.cpp:168] Memory required for data: 896364544
I1118 17:18:25.391566 20478 layer_factory.hpp:77] Creating layer conv2
I1118 17:18:25.391595 20478 net.cpp:103] Creating Layer conv2
I1118 17:18:25.391607 20478 net.cpp:437] conv2 <- norm1
I1118 17:18:25.391624 20478 net.cpp:411] conv2 -> conv2
I1118 17:18:25.529264 20478 net.cpp:153] Setting up conv2
I1118 17:18:25.529333 20478 net.cpp:160] Top shape: 256 256 27 27 (47775744)
I1118 17:18:25.529341 20478 net.cpp:168] Memory required for data: 1087467520
I1118 17:18:25.529379 20478 layer_factory.hpp:77] Creating layer relu2
I1118 17:18:25.529412 20478 net.cpp:103] Creating Layer relu2
I1118 17:18:25.529422 20478 net.cpp:437] relu2 <- conv2
I1118 17:18:25.529434 20478 net.cpp:398] relu2 -> conv2 (in-place)
I1118 17:18:25.529952 20478 net.cpp:153] Setting up relu2
I1118 17:18:25.529971 20478 net.cpp:160] Top shape: 256 256 27 27 (47775744)
I1118 17:18:25.529979 20478 net.cpp:168] Memory required for data: 1278570496
I1118 17:18:25.529986 20478 layer_factory.hpp:77] Creating layer pool2
I1118 17:18:25.529999 20478 net.cpp:103] Creating Layer pool2
I1118 17:18:25.530006 20478 net.cpp:437] pool2 <- conv2
I1118 17:18:25.530019 20478 net.cpp:411] pool2 -> pool2
I1118 17:18:25.587288 20478 net.cpp:153] Setting up pool2
I1118 17:18:25.587347 20478 net.cpp:160] Top shape: 256 256 13 13 (11075584)
I1118 17:18:25.587355 20478 net.cpp:168] Memory required for data: 1322872832
I1118 17:18:25.587368 20478 layer_factory.hpp:77] Creating layer norm2
I1118 17:18:25.587394 20478 net.cpp:103] Creating Layer norm2
I1118 17:18:25.587404 20478 net.cpp:437] norm2 <- pool2
I1118 17:18:25.587419 20478 net.cpp:411] norm2 -> norm2
I1118 17:18:25.645123 20478 net.cpp:153] Setting up norm2
I1118 17:18:25.645195 20478 net.cpp:160] Top shape: 256 256 13 13 (11075584)
I1118 17:18:25.645203 20478 net.cpp:168] Memory required for data: 1367175168
I1118 17:18:25.645216 20478 layer_factory.hpp:77] Creating layer conv3
I1118 17:18:25.645256 20478 net.cpp:103] Creating Layer conv3
I1118 17:18:25.645267 20478 net.cpp:437] conv3 <- norm2
I1118 17:18:25.645284 20478 net.cpp:411] conv3 -> conv3
I1118 17:18:25.711000 20478 net.cpp:153] Setting up conv3
I1118 17:18:25.711055 20478 net.cpp:160] Top shape: 256 384 13 13 (16613376)
I1118 17:18:25.711062 20478 net.cpp:168] Memory required for data: 1433628672
I1118 17:18:25.711098 20478 layer_factory.hpp:77] Creating layer relu3
I1118 17:18:25.711117 20478 net.cpp:103] Creating Layer relu3
I1118 17:18:25.711125 20478 net.cpp:437] relu3 <- conv3
I1118 17:18:25.711141 20478 net.cpp:398] relu3 -> conv3 (in-place)
I1118 17:18:25.711443 20478 net.cpp:153] Setting up relu3
I1118 17:18:25.711462 20478 net.cpp:160] Top shape: 256 384 13 13 (16613376)
I1118 17:18:25.711468 20478 net.cpp:168] Memory required for data: 1500082176
I1118 17:18:25.711477 20478 layer_factory.hpp:77] Creating layer conv4
I1118 17:18:25.711503 20478 net.cpp:103] Creating Layer conv4
I1118 17:18:25.711511 20478 net.cpp:437] conv4 <- conv3
I1118 17:18:25.711525 20478 net.cpp:411] conv4 -> conv4
I1118 17:18:25.773093 20478 net.cpp:153] Setting up conv4
I1118 17:18:25.773157 20478 net.cpp:160] Top shape: 256 384 13 13 (16613376)
I1118 17:18:25.773166 20478 net.cpp:168] Memory required for data: 1566535680
I1118 17:18:25.773193 20478 layer_factory.hpp:77] Creating layer relu4
I1118 17:18:25.773210 20478 net.cpp:103] Creating Layer relu4
I1118 17:18:25.773218 20478 net.cpp:437] relu4 <- conv4
I1118 17:18:25.773246 20478 net.cpp:398] relu4 -> conv4 (in-place)
I1118 17:18:25.773778 20478 net.cpp:153] Setting up relu4
I1118 17:18:25.773798 20478 net.cpp:160] Top shape: 256 384 13 13 (16613376)
I1118 17:18:25.773805 20478 net.cpp:168] Memory required for data: 1632989184
I1118 17:18:25.773813 20478 layer_factory.hpp:77] Creating layer conv5
I1118 17:18:25.773840 20478 net.cpp:103] Creating Layer conv5
I1118 17:18:25.773849 20478 net.cpp:437] conv5 <- conv4
I1118 17:18:25.773860 20478 net.cpp:411] conv5 -> conv5
I1118 17:18:25.816987 20478 net.cpp:153] Setting up conv5
I1118 17:18:25.817047 20478 net.cpp:160] Top shape: 256 256 13 13 (11075584)
I1118 17:18:25.817055 20478 net.cpp:168] Memory required for data: 1677291520
I1118 17:18:25.817093 20478 layer_factory.hpp:77] Creating layer relu5
I1118 17:18:25.817114 20478 net.cpp:103] Creating Layer relu5
I1118 17:18:25.817124 20478 net.cpp:437] relu5 <- conv5
I1118 17:18:25.817138 20478 net.cpp:398] relu5 -> conv5 (in-place)
I1118 17:18:25.817626 20478 net.cpp:153] Setting up relu5
I1118 17:18:25.817662 20478 net.cpp:160] Top shape: 256 256 13 13 (11075584)
I1118 17:18:25.817670 20478 net.cpp:168] Memory required for data: 1721593856
I1118 17:18:25.817678 20478 layer_factory.hpp:77] Creating layer pool5
I1118 17:18:25.817693 20478 net.cpp:103] Creating Layer pool5
I1118 17:18:25.817701 20478 net.cpp:437] pool5 <- conv5
I1118 17:18:25.817711 20478 net.cpp:411] pool5 -> pool5
I1118 17:18:25.829267 20478 net.cpp:153] Setting up pool5
I1118 17:18:25.829319 20478 net.cpp:160] Top shape: 256 256 6 6 (2359296)
I1118 17:18:25.829327 20478 net.cpp:168] Memory required for data: 1731031040
I1118 17:18:25.829339 20478 layer_factory.hpp:77] Creating layer fc6
I1118 17:18:25.829372 20478 net.cpp:103] Creating Layer fc6
I1118 17:18:25.829385 20478 net.cpp:437] fc6 <- pool5
I1118 17:18:25.829399 20478 net.cpp:411] fc6 -> fc6
I1118 17:18:26.464942 20478 net.cpp:153] Setting up fc6
I1118 17:18:26.465008 20478 net.cpp:160] Top shape: 256 4096 (1048576)
I1118 17:18:26.465015 20478 net.cpp:168] Memory required for data: 1735225344
I1118 17:18:26.465044 20478 layer_factory.hpp:77] Creating layer relu6
I1118 17:18:26.465061 20478 net.cpp:103] Creating Layer relu6
I1118 17:18:26.465080 20478 net.cpp:437] relu6 <- fc6
I1118 17:18:26.465095 20478 net.cpp:398] relu6 -> fc6 (in-place)
I1118 17:18:26.465400 20478 net.cpp:153] Setting up relu6
I1118 17:18:26.465418 20478 net.cpp:160] Top shape: 256 4096 (1048576)
I1118 17:18:26.465425 20478 net.cpp:168] Memory required for data: 1739419648
I1118 17:18:26.465441 20478 layer_factory.hpp:77] Creating layer drop6
I1118 17:18:26.465454 20478 net.cpp:103] Creating Layer drop6
I1118 17:18:26.465461 20478 net.cpp:437] drop6 <- fc6
I1118 17:18:26.465473 20478 net.cpp:398] drop6 -> fc6 (in-place)
I1118 17:18:26.468016 20478 net.cpp:153] Setting up drop6
I1118 17:18:26.468037 20478 net.cpp:160] Top shape: 256 4096 (1048576)
I1118 17:18:26.468045 20478 net.cpp:168] Memory required for data: 1743613952
I1118 17:18:26.468053 20478 layer_factory.hpp:77] Creating layer fc7
I1118 17:18:26.468072 20478 net.cpp:103] Creating Layer fc7
I1118 17:18:26.468081 20478 net.cpp:437] fc7 <- fc6
I1118 17:18:26.468094 20478 net.cpp:411] fc7 -> fc7
I1118 17:18:26.752236 20478 net.cpp:153] Setting up fc7
I1118 17:18:26.752300 20478 net.cpp:160] Top shape: 256 4096 (1048576)
I1118 17:18:26.752310 20478 net.cpp:168] Memory required for data: 1747808256
I1118 17:18:26.752365 20478 layer_factory.hpp:77] Creating layer relu7
I1118 17:18:26.752388 20478 net.cpp:103] Creating Layer relu7
I1118 17:18:26.752396 20478 net.cpp:437] relu7 <- fc7
I1118 17:18:26.752410 20478 net.cpp:398] relu7 -> fc7 (in-place)
I1118 17:18:26.752936 20478 net.cpp:153] Setting up relu7
I1118 17:18:26.752955 20478 net.cpp:160] Top shape: 256 4096 (1048576)
I1118 17:18:26.752964 20478 net.cpp:168] Memory required for data: 1752002560
I1118 17:18:26.752970 20478 layer_factory.hpp:77] Creating layer drop7
I1118 17:18:26.752985 20478 net.cpp:103] Creating Layer drop7
I1118 17:18:26.753001 20478 net.cpp:437] drop7 <- fc7
I1118 17:18:26.755926 20478 net.cpp:398] drop7 -> fc7 (in-place)
I1118 17:18:26.760701 20478 net.cpp:153] Setting up drop7
I1118 17:18:26.760748 20478 net.cpp:160] Top shape: 256 4096 (1048576)
I1118 17:18:26.760763 20478 net.cpp:168] Memory required for data: 1756196864
I1118 17:18:26.760778 20478 layer_factory.hpp:77] Creating layer fc8
I1118 17:18:26.760813 20478 net.cpp:103] Creating Layer fc8
I1118 17:18:26.760823 20478 net.cpp:437] fc8 <- fc7
I1118 17:18:26.760835 20478 net.cpp:411] fc8 -> fc8
I1118 17:18:26.836642 20478 net.cpp:153] Setting up fc8
I1118 17:18:26.836694 20478 net.cpp:160] Top shape: 256 1000 (256000)
I1118 17:18:26.836701 20478 net.cpp:168] Memory required for data: 1757220864
I1118 17:18:26.836730 20478 layer_factory.hpp:77] Creating layer loss
I1118 17:18:26.836747 20478 net.cpp:103] Creating Layer loss
I1118 17:18:26.836757 20478 net.cpp:437] loss <- fc8
I1118 17:18:26.836768 20478 net.cpp:437] loss <- label
I1118 17:18:26.836783 20478 net.cpp:411] loss -> loss
I1118 17:18:26.836810 20478 layer_factory.hpp:77] Creating layer loss
…
I1118 17:18:26.839612 20478 net.cpp:325] The NetState phase (1) differed from the phase (0) specified by a rule in layer data
I1118 17:18:26.839846 20478 net.cpp:61] Initializing net from parameters: 
name: "CaffeNet"
state {
  phase: TEST
}
layer {
  name: "data"
  type: "Data"
  top: "data"
  top: "label"
  include {
    phase: TEST
  }
  transform_param {
    mirror: false
    crop_size: 227
    mean_file: "/home/public/ImageNet12_Copy1/imagenet_mean.binaryproto"
  }
  data_param {
    source: "/home/public/ImageNet12_Copy1/ilsvrc12_val_lmdb"
    batch_size: 50
    backend: LMDB
  }
}
layer {
  name: "conv1"
  type: "Convolution"
  bottom: "data"
  top: "conv1"
  param {
    lr_mult: 1
    decay_mult: 1
  }
  param {
    lr_mult: 2
    decay_mult: 0
  }
  connectivity_mode: DISCONNECTED_GRPWISE
  convolution_param {
    num_output: 96
    kernel_size: 11
    stride: 4
    weight_filler {
      type: "gaussian"
      std: 0.01
    }
    bias_filler {
      type: "constant"
      value: 0
    }
  }
}
layer {
  name: "relu1"
  type: "ReLU"
  bottom: "conv1"
  top: "conv1"
}
layer {
  name: "pool1"
  type: "Pooling"
  bottom: "conv1"
  top: "pool1"
  pooling_param {
    pool: MAX
    kernel_size: 3
    stride: 2
  }
}
layer {
  name: "norm1"
  type: "LRN"
  bottom: "pool1"
  top: "norm1"
  lrn_param {
    local_size: 5
    alpha: 0.0001
    beta: 0.75
  }
}
layer {
  name: "conv2"
  type: "Convolution"
  bottom: "norm1"
  top: "conv2"
  param {
    lr_mult: 1
    decay_mult: 1
  }
  param {
    lr_mult: 2
    decay_mult: 0
  }
  connectivity_mode: DISCONNECTED_GRPWISE
  convolution_param {
    num_output: 256
    pad: 2
    kernel_size: 5
    group: 2
    weight_filler {
      type: "gaussian"
      std: 0.01
    }
    bias_filler {
      type: "constant"
      value: 1
    }
  }
}
layer {
  name: "relu2"
  type: "ReLU"
  bottom: "conv2"
  top: "conv2"
}
layer {
  name: "pool2"
  type: "Pooling"
  bottom: "conv2"
  top: "pool2"
  pooling_param {
    pool: MAX
    kernel_size: 3
    stride: 2
  }
}
layer {
  name: "norm2"
  type: "LRN"
  bottom: "pool2"
  top: "norm2"
  lrn_param {
    local_size: 5
    alpha: 0.0001
    beta: 0.75
  }
}
layer {
  name: "conv3"
  type: "Convolution"
  bottom: "norm2"
  top: "conv3"
  param {
    lr_mult: 1
    decay_mult: 1
  }
  param {
    lr_mult: 2
    decay_mult: 0
  }
  connectivity_mode: DISCONNECTED_GRPWISE
  convolution_param {
    num_output: 384
    pad: 1
    kernel_size: 3
    weight_filler {
      type: "gaussian"
      std: 0.01
    }
    bias_filler {
      type: "constant"
      value: 0
    }
  }
}
layer {
  name: "relu3"
  type: "ReLU"
  bottom: "conv3"
  top: "conv3"
}
layer {
  name: "conv4"
  type: "Convolution"
  bottom: "conv3"
  top: "conv4"
  param {
    lr_mult: 1
    decay_mult: 1
  }
  param {
    lr_mult: 2
    decay_mult: 0
  }
  connectivity_mode: DISCONNECTED_GRPWISE
  convolution_param {
    num_output: 384
    pad: 1
    kernel_size: 3
    group: 2
    weight_filler {
      type: "gaussian"
      std: 0.01
    }
    bias_filler {
      type: "constant"
      value: 1
    }
  }
}
layer {
  name: "relu4"
  type: "ReLU"
  bottom: "conv4"
  top: "conv4"
}
layer {
  name: "conv5"
  type: "Convolution"
  bottom: "conv4"
  top: "conv5"
  param {
    lr_mult: 1
    decay_mult: 0
  }
  param {
    lr_mult: 2
    decay_mult: 0
  }
  connectivity_mode: DISCONNECTED_GRPWISE
  convolution_param {
    num_output: 256
    pad: 1
    kernel_size: 3
    group: 2
    weight_filler {
      type: "gaussian"
      std: 0.01
    }
    bias_filler {
      type: "constant"
      value: 1
    }
  }
}
layer {
  name: "relu5"
  type: "ReLU"
  bottom: "conv5"
  top: "conv5"
}
layer {
  name: "pool5"
  type: "Pooling"
  bottom: "conv5"
  top: "pool5"
  pooling_param {
    pool: MAX
    kernel_size: 3
    stride: 2
  }
}
layer {
  name: "fc6"
  type: "InnerProduct"
  bottom: "pool5"
  top: "fc6"
  param {
    lr_mult: 1
    decay_mult: 1
  }
  param {
    lr_mult: 2
    decay_mult: 0
  }
  inner_product_param {
    num_output: 4096
    weight_filler {
      type: "gaussian"
      std: 0.005
    }
    bias_filler {
      type: "constant"
      value: 1
    }
  }
}
layer {
  name: "relu6"
  type: "ReLU"
  bottom: "fc6"
  top: "fc6"
}
layer {
  name: "drop6"
  type: "Dropout"
  bottom: "fc6"
  top: "fc6"
  dropout_param {
    dropout_ratio: 0.5
  }
}
layer {
  name: "fc7"
  type: "InnerProduct"
  bottom: "fc6"
  top: "fc7"
  param {
    lr_mult: 1
    decay_mult: 1
  }
  param {
    lr_mult: 2
    decay_mult: 0
  }
  inner_product_param {
    num_output: 4096
    weight_filler {
      type: "gaussian"
      std: 0.005
    }
    bias_filler {
      type: "constant"
      value: 1
    }
  }
}
layer {
  name: "relu7"
  type: "ReLU"
  bottom: "fc7"
  top: "fc7"
}
layer {
  name: "drop7"
  type: "Dropout"
  bottom: "fc7"
  top: "fc7"
  dropout_param {
    dropout_ratio: 0.5
  }
}
layer {
  name: "fc8"
  type: "InnerProduct"
  bottom: "fc7"
  top: "fc8"
  param {
    lr_mult: 1
    decay_mult: 1
  }
  param {
    lr_mult: 2
    decay_mult: 0
  }
  inner_product_param {
    num_output: 1000
    weight_filler {
      type: "gaussian"
      std: 0.01
    }
    bias_filler {
      type: "constant"
      value: 0
    }
  }
}
layer {
  name: "accuracy"
  type: "Accuracy"
  bottom: "fc8"
  bottom: "label"
  top: "accuracy"
  include {
    phase: TEST
  }
}
layer {
  name: "loss"
  type: "SoftmaxWithLoss"
  bottom: "fc8"
  bottom: "label"
  top: "loss"
}
I1118 17:18:26.840000 20478 layer_factory.hpp:77] Creating layer data
I1118 17:18:26.840116 20478 net.cpp:103] Creating Layer data
I1118 17:18:26.840136 20478 net.cpp:411] data -> data
I1118 17:18:26.840150 20478 net.cpp:411] data -> label
I1118 17:18:26.840167 20478 data_transformer.cpp:25] Loading mean file from: /home/public/ImageNet12_Copy1/imagenet_mean.binaryproto
I1118 17:18:26.852104 20490 db_lmdb.cpp:35] Opened lmdb /home/public/ImageNet12_Copy1/ilsvrc12_val_lmdb
I1118 17:18:26.937678 20478 data_layer.cpp:41] output data size: 50,3,227,227
I1118 17:18:26.996016 20478 net.cpp:153] Setting up data
I1118 17:18:26.996080 20478 net.cpp:160] Top shape: 50 3 227 227 (7729350)
I1118 17:18:26.996091 20478 net.cpp:160] Top shape: 50 (50)
I1118 17:18:26.996098 20478 net.cpp:168] Memory required for data: 30917600
I1118 17:18:26.996111 20478 layer_factory.hpp:77] Creating layer label_data_1_split
I1118 17:18:26.996134 20478 net.cpp:103] Creating Layer label_data_1_split
I1118 17:18:26.996143 20478 net.cpp:437] label_data_1_split <- label
I1118 17:18:26.996156 20478 net.cpp:411] label_data_1_split -> label_data_1_split_0
I1118 17:18:26.996177 20478 net.cpp:411] label_data_1_split -> label_data_1_split_1
I1118 17:18:26.996321 20478 net.cpp:153] Setting up label_data_1_split
I1118 17:18:26.996338 20478 net.cpp:160] Top shape: 50 (50)
I1118 17:18:26.996346 20478 net.cpp:160] Top shape: 50 (50)
I1118 17:18:26.996353 20478 net.cpp:168] Memory required for data: 30918000
I1118 17:18:26.996361 20478 layer_factory.hpp:77] Creating layer conv1
I1118 17:18:26.996395 20478 net.cpp:103] Creating Layer conv1
I1118 17:18:26.996405 20478 net.cpp:437] conv1 <- data
I1118 17:18:26.996417 20478 net.cpp:411] conv1 -> conv1
I1118 17:18:27.044060 20478 net.cpp:153] Setting up conv1
I1118 17:18:27.044121 20478 net.cpp:160] Top shape: 50 96 55 55 (14520000)
I1118 17:18:27.044129 20478 net.cpp:168] Memory required for data: 88998000
I1118 17:18:27.044169 20478 layer_factory.hpp:77] Creating layer relu1
I1118 17:18:27.044193 20478 net.cpp:103] Creating Layer relu1
I1118 17:18:27.044203 20478 net.cpp:437] relu1 <- conv1
I1118 17:18:27.044214 20478 net.cpp:398] relu1 -> conv1 (in-place)
I1118 17:18:27.044731 20478 net.cpp:153] Setting up relu1
I1118 17:18:27.044752 20478 net.cpp:160] Top shape: 50 96 55 55 (14520000)
I1118 17:18:27.044759 20478 net.cpp:168] Memory required for data: 147078000
I1118 17:18:27.044767 20478 layer_factory.hpp:77] Creating layer pool1
I1118 17:18:27.044785 20478 net.cpp:103] Creating Layer pool1
I1118 17:18:27.044791 20478 net.cpp:437] pool1 <- conv1
I1118 17:18:27.044803 20478 net.cpp:411] pool1 -> pool1
I1118 17:18:27.065217 20478 net.cpp:153] Setting up pool1
I1118 17:18:27.065299 20478 net.cpp:160] Top shape: 50 96 27 27 (3499200)
I1118 17:18:27.065309 20478 net.cpp:168] Memory required for data: 161074800
I1118 17:18:27.065321 20478 layer_factory.hpp:77] Creating layer norm1
I1118 17:18:27.065342 20478 net.cpp:103] Creating Layer norm1
I1118 17:18:27.065353 20478 net.cpp:437] norm1 <- pool1
I1118 17:18:27.065371 20478 net.cpp:411] norm1 -> norm1
I1118 17:18:27.084221 20478 net.cpp:153] Setting up norm1
I1118 17:18:27.084283 20478 net.cpp:160] Top shape: 50 96 27 27 (3499200)
I1118 17:18:27.084291 20478 net.cpp:168] Memory required for data: 175071600
I1118 17:18:27.084305 20478 layer_factory.hpp:77] Creating layer conv2
I1118 17:18:27.084350 20478 net.cpp:103] Creating Layer conv2
I1118 17:18:27.084378 20478 net.cpp:437] conv2 <- norm1
I1118 17:18:27.084398 20478 net.cpp:411] conv2 -> conv2
I1118 17:18:27.123122 20478 net.cpp:153] Setting up conv2
I1118 17:18:27.123178 20478 net.cpp:160] Top shape: 50 256 27 27 (9331200)
I1118 17:18:27.123185 20478 net.cpp:168] Memory required for data: 212396400
I1118 17:18:27.123222 20478 layer_factory.hpp:77] Creating layer relu2
I1118 17:18:27.123239 20478 net.cpp:103] Creating Layer relu2
I1118 17:18:27.123248 20478 net.cpp:437] relu2 <- conv2
I1118 17:18:27.123262 20478 net.cpp:398] relu2 -> conv2 (in-place)
I1118 17:18:27.123559 20478 net.cpp:153] Setting up relu2
I1118 17:18:27.123577 20478 net.cpp:160] Top shape: 50 256 27 27 (9331200)
I1118 17:18:27.123584 20478 net.cpp:168] Memory required for data: 249721200
I1118 17:18:27.123591 20478 layer_factory.hpp:77] Creating layer pool2
I1118 17:18:27.123607 20478 net.cpp:103] Creating Layer pool2
I1118 17:18:27.123615 20478 net.cpp:437] pool2 <- conv2
I1118 17:18:27.123626 20478 net.cpp:411] pool2 -> pool2
I1118 17:18:27.135315 20478 net.cpp:153] Setting up pool2
I1118 17:18:27.135370 20478 net.cpp:160] Top shape: 50 256 13 13 (2163200)
I1118 17:18:27.135377 20478 net.cpp:168] Memory required for data: 258374000
I1118 17:18:27.135390 20478 layer_factory.hpp:77] Creating layer norm2
I1118 17:18:27.135408 20478 net.cpp:103] Creating Layer norm2
I1118 17:18:27.135418 20478 net.cpp:437] norm2 <- pool2
I1118 17:18:27.135433 20478 net.cpp:411] norm2 -> norm2
I1118 17:18:27.146457 20478 net.cpp:153] Setting up norm2
I1118 17:18:27.146509 20478 net.cpp:160] Top shape: 50 256 13 13 (2163200)
I1118 17:18:27.146517 20478 net.cpp:168] Memory required for data: 267026800
I1118 17:18:27.146529 20478 layer_factory.hpp:77] Creating layer conv3
I1118 17:18:27.146559 20478 net.cpp:103] Creating Layer conv3
I1118 17:18:27.146569 20478 net.cpp:437] conv3 <- norm2
I1118 17:18:27.146587 20478 net.cpp:411] conv3 -> conv3
I1118 17:18:27.182163 20478 net.cpp:153] Setting up conv3
I1118 17:18:27.182225 20478 net.cpp:160] Top shape: 50 384 13 13 (3244800)
I1118 17:18:27.182235 20478 net.cpp:168] Memory required for data: 280006000
I1118 17:18:27.182274 20478 layer_factory.hpp:77] Creating layer relu3
I1118 17:18:27.182296 20478 net.cpp:103] Creating Layer relu3
I1118 17:18:27.182308 20478 net.cpp:437] relu3 <- conv3
I1118 17:18:27.182322 20478 net.cpp:398] relu3 -> conv3 (in-place)
I1118 17:18:27.182636 20478 net.cpp:153] Setting up relu3
I1118 17:18:27.182656 20478 net.cpp:160] Top shape: 50 384 13 13 (3244800)
I1118 17:18:27.182662 20478 net.cpp:168] Memory required for data: 292985200
I1118 17:18:27.182670 20478 layer_factory.hpp:77] Creating layer conv4
I1118 17:18:27.182694 20478 net.cpp:103] Creating Layer conv4
I1118 17:18:27.182703 20478 net.cpp:437] conv4 <- conv3
I1118 17:18:27.182715 20478 net.cpp:411] conv4 -> conv4
I1118 17:18:27.211344 20478 net.cpp:153] Setting up conv4
I1118 17:18:27.211406 20478 net.cpp:160] Top shape: 50 384 13 13 (3244800)
I1118 17:18:27.211416 20478 net.cpp:168] Memory required for data: 305964400
I1118 17:18:27.211446 20478 layer_factory.hpp:77] Creating layer relu4
I1118 17:18:27.211463 20478 net.cpp:103] Creating Layer relu4
I1118 17:18:27.211472 20478 net.cpp:437] relu4 <- conv4
I1118 17:18:27.211488 20478 net.cpp:398] relu4 -> conv4 (in-place)
I1118 17:18:27.211820 20478 net.cpp:153] Setting up relu4
I1118 17:18:27.211840 20478 net.cpp:160] Top shape: 50 384 13 13 (3244800)
I1118 17:18:27.211848 20478 net.cpp:168] Memory required for data: 318943600
I1118 17:18:27.211856 20478 layer_factory.hpp:77] Creating layer conv5
I1118 17:18:27.211877 20478 net.cpp:103] Creating Layer conv5
I1118 17:18:27.211885 20478 net.cpp:437] conv5 <- conv4
I1118 17:18:27.211899 20478 net.cpp:411] conv5 -> conv5
I1118 17:18:27.238018 20478 net.cpp:153] Setting up conv5
I1118 17:18:27.238067 20478 net.cpp:160] Top shape: 50 256 13 13 (2163200)
I1118 17:18:27.238076 20478 net.cpp:168] Memory required for data: 327596400
I1118 17:18:27.238123 20478 layer_factory.hpp:77] Creating layer relu5
I1118 17:18:27.238170 20478 net.cpp:103] Creating Layer relu5
I1118 17:18:27.238181 20478 net.cpp:437] relu5 <- conv5
I1118 17:18:27.238195 20478 net.cpp:398] relu5 -> conv5 (in-place)
I1118 17:18:27.238759 20478 net.cpp:153] Setting up relu5
I1118 17:18:27.238778 20478 net.cpp:160] Top shape: 50 256 13 13 (2163200)
I1118 17:18:27.238786 20478 net.cpp:168] Memory required for data: 336249200
I1118 17:18:27.238793 20478 layer_factory.hpp:77] Creating layer pool5
I1118 17:18:27.238812 20478 net.cpp:103] Creating Layer pool5
I1118 17:18:27.238822 20478 net.cpp:437] pool5 <- conv5
I1118 17:18:27.238833 20478 net.cpp:411] pool5 -> pool5
I1118 17:18:27.241694 20478 net.cpp:153] Setting up pool5
I1118 17:18:27.241734 20478 net.cpp:160] Top shape: 50 256 6 6 (460800)
I1118 17:18:27.241740 20478 net.cpp:168] Memory required for data: 338092400
I1118 17:18:27.241750 20478 layer_factory.hpp:77] Creating layer fc6
I1118 17:18:27.241768 20478 net.cpp:103] Creating Layer fc6
I1118 17:18:27.241777 20478 net.cpp:437] fc6 <- pool5
I1118 17:18:27.241793 20478 net.cpp:411] fc6 -> fc6
I1118 17:18:27.959389 20478 net.cpp:153] Setting up fc6
I1118 17:18:27.959445 20478 net.cpp:160] Top shape: 50 4096 (204800)
I1118 17:18:27.959455 20478 net.cpp:168] Memory required for data: 338911600
I1118 17:18:27.959486 20478 layer_factory.hpp:77] Creating layer relu6
I1118 17:18:27.959504 20478 net.cpp:103] Creating Layer relu6
I1118 17:18:27.959514 20478 net.cpp:437] relu6 <- fc6
I1118 17:18:27.959532 20478 net.cpp:398] relu6 -> fc6 (in-place)
I1118 17:18:27.959944 20478 net.cpp:153] Setting up relu6
I1118 17:18:27.959961 20478 net.cpp:160] Top shape: 50 4096 (204800)
I1118 17:18:27.959969 20478 net.cpp:168] Memory required for data: 339730800
I1118 17:18:27.959977 20478 layer_factory.hpp:77] Creating layer drop6
I1118 17:18:27.959991 20478 net.cpp:103] Creating Layer drop6
I1118 17:18:27.959998 20478 net.cpp:437] drop6 <- fc6
I1118 17:18:27.960011 20478 net.cpp:398] drop6 -> fc6 (in-place)
I1118 17:18:27.961304 20478 net.cpp:153] Setting up drop6
I1118 17:18:27.961328 20478 net.cpp:160] Top shape: 50 4096 (204800)
I1118 17:18:27.961335 20478 net.cpp:168] Memory required for data: 340550000
I1118 17:18:27.961344 20478 layer_factory.hpp:77] Creating layer fc7
I1118 17:18:27.961357 20478 net.cpp:103] Creating Layer fc7
I1118 17:18:27.961365 20478 net.cpp:437] fc7 <- fc6
I1118 17:18:27.961383 20478 net.cpp:411] fc7 -> fc7
I1118 17:18:28.275954 20478 net.cpp:153] Setting up fc7
I1118 17:18:28.276008 20478 net.cpp:160] Top shape: 50 4096 (204800)
I1118 17:18:28.276018 20478 net.cpp:168] Memory required for data: 341369200
I1118 17:18:28.276046 20478 layer_factory.hpp:77] Creating layer relu7
I1118 17:18:28.276064 20478 net.cpp:103] Creating Layer relu7
I1118 17:18:28.276074 20478 net.cpp:437] relu7 <- fc7
I1118 17:18:28.276087 20478 net.cpp:398] relu7 -> fc7 (in-place)
I1118 17:18:28.276690 20478 net.cpp:153] Setting up relu7
I1118 17:18:28.276710 20478 net.cpp:160] Top shape: 50 4096 (204800)
I1118 17:18:28.276716 20478 net.cpp:168] Memory required for data: 342188400
I1118 17:18:28.276726 20478 layer_factory.hpp:77] Creating layer drop7
I1118 17:18:28.276737 20478 net.cpp:103] Creating Layer drop7
I1118 17:18:28.276746 20478 net.cpp:437] drop7 <- fc7
I1118 17:18:28.276758 20478 net.cpp:398] drop7 -> fc7 (in-place)
I1118 17:18:28.277737 20478 net.cpp:153] Setting up drop7
I1118 17:18:28.277760 20478 net.cpp:160] Top shape: 50 4096 (204800)
I1118 17:18:28.277768 20478 net.cpp:168] Memory required for data: 343007600
I1118 17:18:28.277776 20478 layer_factory.hpp:77] Creating layer fc8
I1118 17:18:28.277789 20478 net.cpp:103] Creating Layer fc8
I1118 17:18:28.277797 20478 net.cpp:437] fc8 <- fc7
I1118 17:18:28.277812 20478 net.cpp:411] fc8 -> fc8
I1118 17:18:28.354323 20478 net.cpp:153] Setting up fc8
I1118 17:18:28.354378 20478 net.cpp:160] Top shape: 50 1000 (50000)
I1118 17:18:28.354387 20478 net.cpp:168] Memory required for data: 343207600
I1118 17:18:28.354413 20478 layer_factory.hpp:77] Creating layer fc8_fc8_0_split
I1118 17:18:28.354441 20478 net.cpp:103] Creating Layer fc8_fc8_0_split
I1118 17:18:28.354463 20478 net.cpp:437] fc8_fc8_0_split <- fc8
I1118 17:18:28.354478 20478 net.cpp:411] fc8_fc8_0_split -> fc8_fc8_0_split_0
I1118 17:18:28.354496 20478 net.cpp:411] fc8_fc8_0_split -> fc8_fc8_0_split_1
I1118 17:18:28.354668 20478 net.cpp:153] Setting up fc8_fc8_0_split
I1118 17:18:28.354683 20478 net.cpp:160] Top shape: 50 1000 (50000)
I1118 17:18:28.354692 20478 net.cpp:160] Top shape: 50 1000 (50000)
I1118 17:18:28.354698 20478 net.cpp:168] Memory required for data: 343607600
I1118 17:18:28.354707 20478 layer_factory.hpp:77] Creating layer accuracy
I1118 17:18:28.354723 20478 net.cpp:103] Creating Layer accuracy
I1118 17:18:28.354732 20478 net.cpp:437] accuracy <- fc8_fc8_0_split_0
I1118 17:18:28.354738 20478 net.cpp:437] accuracy <- label_data_1_split_0
I1118 17:18:28.354749 20478 net.cpp:411] accuracy -> accuracy
…
