…
I0929 13:14:45.899791  9926 net.cpp:316] The NetState phase (0) differed from the phase (1) specified by a rule in layer mnist
I0929 13:14:45.899829  9926 net.cpp:316] The NetState phase (0) differed from the phase (1) specified by a rule in layer accuracy
I0929 13:14:45.899999  9926 net.cpp:52] Initializing net from parameters: 
name: "LeNet"
state {
  phase: TRAIN
}
layer {
  name: "mnist"
  type: "Data"
  top: "data"
  top: "label"
  include {
    phase: TRAIN
  }
  transform_param {
    scale: 0.00390625
  }
  data_param {
    source: "./mnist_train_lmdb"
    batch_size: 64
    backend: LMDB
  }
}
layer {
  name: "conv1"
  type: "Convolution"
  bottom: "data"
  top: "conv1"
  param {
    lr_mult: 1
    decay_mult: 1
    breadth_decay_mult: 1
    kernel_shape_decay_mult: 1
    block_group_lasso {
      xdimen: 25
      ydimen: 5
      block_decay_mult: 1
    }
  }
  param {
    lr_mult: 2
    decay_mult: 1
  }
  connectivity_mode: CONNECTED
  convolution_param {
    num_output: 20
    kernel_size: 5
    stride: 1
    weight_filler {
      type: "xavier"
    }
    bias_filler {
      type: "constant"
    }
  }
}
layer {
  name: "pool1"
  type: "Pooling"
  bottom: "conv1"
  top: "pool1"
  pooling_param {
    pool: MAX
    kernel_size: 2
    stride: 2
  }
}
layer {
  name: "conv2"
  type: "Convolution"
  bottom: "pool1"
  top: "conv2"
  param {
    lr_mult: 1
    decay_mult: 1
    breadth_decay_mult: 1
    kernel_shape_decay_mult: 1
    block_group_lasso {
      xdimen: 25
      ydimen: 5
      block_decay_mult: 1
    }
  }
  param {
    lr_mult: 2
    decay_mult: 1
  }
  connectivity_mode: CONNECTED
  convolution_param {
    num_output: 50
    kernel_size: 5
    stride: 1
    weight_filler {
      type: "xavier"
    }
    bias_filler {
      type: "constant"
    }
  }
}
layer {
  name: "pool2"
  type: "Pooling"
  bottom: "conv2"
  top: "pool2"
  pooling_param {
    pool: MAX
    kernel_size: 2
    stride: 2
  }
}
layer {
  name: "ip1"
  type: "InnerProduct"
  bottom: "pool2"
  top: "ip1"
  param {
    lr_mult: 1
    decay_mult: 1
    breadth_decay_mult: 1
    kernel_shape_decay_mult: 1
    block_group_lasso {
      xdimen: 10
      ydimen: 10
      block_decay_mult: 1
    }
  }
  param {
    lr_mult: 2
    decay_mult: 1
  }
  inner_product_param {
    num_output: 500
    weight_filler {
      type: "xavier"
    }
    bias_filler {
      type: "constant"
    }
  }
}
layer {
  name: "relu1"
  type: "ReLU"
  bottom: "ip1"
  top: "ip1"
}
layer {
  name: "ip2"
  type: "InnerProduct"
  bottom: "ip1"
  top: "ip2"
  param {
    lr_mult: 1
    decay_mult: 1
    breadth_decay_mult: 1
    kernel_shape_decay_mult: 1
    block_group_lasso {
      xdimen: 10
      ydimen: 10
      block_decay_mult: 1
    }
  }
  param {
    lr_mult: 2
    decay_mult: 1
  }
  inner_product_param {
    num_output: 10
    weight_filler {
      type: "xavier"
    }
    bias_filler {
      type: "constant"
    }
  }
}
layer {
  name: "loss"
  type: "SoftmaxWithLoss"
  bottom: "ip2"
  bottom: "label"
  top: "loss"
}
I0929 13:14:45.900100  9926 layer_factory.hpp:77] Creating layer mnist
I0929 13:14:45.909292  9926 net.cpp:94] Creating Layer mnist
I0929 13:14:45.909349  9926 net.cpp:402] mnist -> data
I0929 13:14:45.909420  9926 net.cpp:402] mnist -> label
I0929 13:14:45.911237  9930 db_lmdb.cpp:38] Opened lmdb ./mnist_train_lmdb
I0929 13:14:45.930544  9926 data_layer.cpp:41] output data size: 64,1,28,28
I0929 13:14:45.932086  9926 net.cpp:144] Setting up mnist
I0929 13:14:45.932168  9926 net.cpp:151] Top shape: 64 1 28 28 (50176)
I0929 13:14:45.932204  9926 net.cpp:151] Top shape: 64 (64)
I0929 13:14:45.932214  9926 net.cpp:159] Memory required for data: 200960
I0929 13:14:45.932230  9926 layer_factory.hpp:77] Creating layer conv1
I0929 13:14:45.932267  9926 net.cpp:94] Creating Layer conv1
I0929 13:14:45.932289  9926 net.cpp:428] conv1 <- data
I0929 13:14:45.932314  9926 net.cpp:402] conv1 -> conv1
I0929 13:14:45.936792  9926 net.cpp:144] Setting up conv1
I0929 13:14:45.936851  9926 net.cpp:151] Top shape: 64 20 24 24 (737280)
I0929 13:14:45.936861  9926 net.cpp:159] Memory required for data: 3150080
I0929 13:14:45.936920  9926 layer_factory.hpp:77] Creating layer pool1
I0929 13:14:45.936951  9926 net.cpp:94] Creating Layer pool1
I0929 13:14:45.936962  9926 net.cpp:428] pool1 <- conv1
I0929 13:14:45.936992  9926 net.cpp:402] pool1 -> pool1
I0929 13:14:45.939419  9926 net.cpp:144] Setting up pool1
I0929 13:14:45.939451  9926 net.cpp:151] Top shape: 64 20 12 12 (184320)
I0929 13:14:45.939481  9926 net.cpp:159] Memory required for data: 3887360
I0929 13:14:45.939491  9926 layer_factory.hpp:77] Creating layer conv2
I0929 13:14:45.939522  9926 net.cpp:94] Creating Layer conv2
I0929 13:14:45.939538  9926 net.cpp:428] conv2 <- pool1
I0929 13:14:45.939553  9926 net.cpp:402] conv2 -> conv2
I0929 13:14:45.942642  9926 net.cpp:144] Setting up conv2
I0929 13:14:45.942675  9926 net.cpp:151] Top shape: 64 50 8 8 (204800)
I0929 13:14:45.942695  9926 net.cpp:159] Memory required for data: 4706560
I0929 13:14:45.942719  9926 layer_factory.hpp:77] Creating layer pool2
I0929 13:14:45.942737  9926 net.cpp:94] Creating Layer pool2
I0929 13:14:45.942746  9926 net.cpp:428] pool2 <- conv2
I0929 13:14:45.942757  9926 net.cpp:402] pool2 -> pool2
I0929 13:14:45.943753  9926 net.cpp:144] Setting up pool2
I0929 13:14:45.943784  9926 net.cpp:151] Top shape: 64 50 4 4 (51200)
I0929 13:14:45.943794  9926 net.cpp:159] Memory required for data: 4911360
I0929 13:14:45.943802  9926 layer_factory.hpp:77] Creating layer ip1
I0929 13:14:45.943820  9926 net.cpp:94] Creating Layer ip1
I0929 13:14:45.943830  9926 net.cpp:428] ip1 <- pool2
I0929 13:14:45.943842  9926 net.cpp:402] ip1 -> ip1
I0929 13:14:45.954177  9926 net.cpp:144] Setting up ip1
I0929 13:14:45.954232  9926 net.cpp:151] Top shape: 64 500 (32000)
I0929 13:14:45.954242  9926 net.cpp:159] Memory required for data: 5039360
I0929 13:14:45.954278  9926 layer_factory.hpp:77] Creating layer relu1
I0929 13:14:45.954301  9926 net.cpp:94] Creating Layer relu1
I0929 13:14:45.954324  9926 net.cpp:428] relu1 <- ip1
I0929 13:14:45.954337  9926 net.cpp:389] relu1 -> ip1 (in-place)
I0929 13:14:45.954373  9926 net.cpp:144] Setting up relu1
I0929 13:14:45.954388  9926 net.cpp:151] Top shape: 64 500 (32000)
I0929 13:14:45.954398  9926 net.cpp:159] Memory required for data: 5167360
I0929 13:14:45.954432  9926 layer_factory.hpp:77] Creating layer ip2
I0929 13:14:45.954445  9926 net.cpp:94] Creating Layer ip2
I0929 13:14:45.954453  9926 net.cpp:428] ip2 <- ip1
I0929 13:14:45.954476  9926 net.cpp:402] ip2 -> ip2
I0929 13:14:45.954879  9926 net.cpp:144] Setting up ip2
I0929 13:14:45.954926  9926 net.cpp:151] Top shape: 64 10 (640)
I0929 13:14:45.954934  9926 net.cpp:159] Memory required for data: 5169920
I0929 13:14:45.954952  9926 layer_factory.hpp:77] Creating layer loss
I0929 13:14:45.954973  9926 net.cpp:94] Creating Layer loss
I0929 13:14:45.954982  9926 net.cpp:428] loss <- ip2
I0929 13:14:45.954993  9926 net.cpp:428] loss <- label
I0929 13:14:45.955015  9926 net.cpp:402] loss -> loss
I0929 13:14:45.955049  9926 layer_factory.hpp:77] Creating layer loss
…
I0929 13:14:45.956137  9926 solver.cpp:184] Creating test net (#0) specified by net file: ./lenet_train_test_grouplasso.prototxt
I0929 13:14:45.956198  9926 net.cpp:316] The NetState phase (1) differed from the phase (0) specified by a rule in layer mnist
I0929 13:14:45.956384  9926 net.cpp:52] Initializing net from parameters: 
name: "LeNet"
state {
  phase: TEST
}
layer {
  name: "mnist"
  type: "Data"
  top: "data"
  top: "label"
  include {
    phase: TEST
  }
  transform_param {
    scale: 0.00390625
  }
  data_param {
    source: "./mnist_test_lmdb"
    batch_size: 100
    backend: LMDB
  }
}
layer {
  name: "conv1"
  type: "Convolution"
  bottom: "data"
  top: "conv1"
  param {
    lr_mult: 1
    decay_mult: 1
    breadth_decay_mult: 1
    kernel_shape_decay_mult: 1
    block_group_lasso {
      xdimen: 25
      ydimen: 5
      block_decay_mult: 1
    }
  }
  param {
    lr_mult: 2
    decay_mult: 1
  }
  connectivity_mode: CONNECTED
  convolution_param {
    num_output: 20
    kernel_size: 5
    stride: 1
    weight_filler {
      type: "xavier"
    }
    bias_filler {
      type: "constant"
    }
  }
}
layer {
  name: "pool1"
  type: "Pooling"
  bottom: "conv1"
  top: "pool1"
  pooling_param {
    pool: MAX
    kernel_size: 2
    stride: 2
  }
}
layer {
  name: "conv2"
  type: "Convolution"
  bottom: "pool1"
  top: "conv2"
  param {
    lr_mult: 1
    decay_mult: 1
    breadth_decay_mult: 1
    kernel_shape_decay_mult: 1
    block_group_lasso {
      xdimen: 25
      ydimen: 5
      block_decay_mult: 1
    }
  }
  param {
    lr_mult: 2
    decay_mult: 1
  }
  connectivity_mode: CONNECTED
  convolution_param {
    num_output: 50
    kernel_size: 5
    stride: 1
    weight_filler {
      type: "xavier"
    }
    bias_filler {
      type: "constant"
    }
  }
}
layer {
  name: "pool2"
  type: "Pooling"
  bottom: "conv2"
  top: "pool2"
  pooling_param {
    pool: MAX
    kernel_size: 2
    stride: 2
  }
}
layer {
  name: "ip1"
  type: "InnerProduct"
  bottom: "pool2"
  top: "ip1"
  param {
    lr_mult: 1
    decay_mult: 1
    breadth_decay_mult: 1
    kernel_shape_decay_mult: 1
    block_group_lasso {
      xdimen: 10
      ydimen: 10
      block_decay_mult: 1
    }
  }
  param {
    lr_mult: 2
    decay_mult: 1
  }
  inner_product_param {
    num_output: 500
    weight_filler {
      type: "xavier"
    }
    bias_filler {
      type: "constant"
    }
  }
}
layer {
  name: "relu1"
  type: "ReLU"
  bottom: "ip1"
  top: "ip1"
}
layer {
  name: "ip2"
  type: "InnerProduct"
  bottom: "ip1"
  top: "ip2"
  param {
    lr_mult: 1
    decay_mult: 1
    breadth_decay_mult: 1
    kernel_shape_decay_mult: 1
    block_group_lasso {
      xdimen: 10
      ydimen: 10
      block_decay_mult: 1
    }
  }
  param {
    lr_mult: 2
    decay_mult: 1
  }
  inner_product_param {
    num_output: 10
    weight_filler {
      type: "xavier"
    }
    bias_filler {
      type: "constant"
    }
  }
}
layer {
  name: "accuracy"
  type: "Accuracy"
  bottom: "ip2"
  bottom: "label"
  top: "accuracy"
  include {
    phase: TEST
  }
}
layer {
  name: "loss"
  type: "SoftmaxWithLoss"
  bottom: "ip2"
  bottom: "label"
  top: "loss"
}
I0929 13:14:45.956511  9926 layer_factory.hpp:77] Creating layer mnist
I0929 13:14:45.956679  9926 net.cpp:94] Creating Layer mnist
I0929 13:14:45.956694  9926 net.cpp:402] mnist -> data
I0929 13:14:45.956710  9926 net.cpp:402] mnist -> label
I0929 13:14:45.958109  9932 db_lmdb.cpp:38] Opened lmdb ./mnist_test_lmdb
I0929 13:14:45.960278  9926 data_layer.cpp:41] output data size: 100,1,28,28
I0929 13:14:45.962033  9926 net.cpp:144] Setting up mnist
I0929 13:14:45.962056  9926 net.cpp:151] Top shape: 100 1 28 28 (78400)
I0929 13:14:45.962091  9926 net.cpp:151] Top shape: 100 (100)
I0929 13:14:45.962100  9926 net.cpp:159] Memory required for data: 314000
I0929 13:14:45.962119  9926 layer_factory.hpp:77] Creating layer label_mnist_1_split
I0929 13:14:45.962147  9926 net.cpp:94] Creating Layer label_mnist_1_split
I0929 13:14:45.962155  9926 net.cpp:428] label_mnist_1_split <- label
I0929 13:14:45.962193  9926 net.cpp:402] label_mnist_1_split -> label_mnist_1_split_0
I0929 13:14:45.962209  9926 net.cpp:402] label_mnist_1_split -> label_mnist_1_split_1
I0929 13:14:45.962347  9926 net.cpp:144] Setting up label_mnist_1_split
I0929 13:14:45.962374  9926 net.cpp:151] Top shape: 100 (100)
I0929 13:14:45.962385  9926 net.cpp:151] Top shape: 100 (100)
I0929 13:14:45.962393  9926 net.cpp:159] Memory required for data: 314800
I0929 13:14:45.962402  9926 layer_factory.hpp:77] Creating layer conv1
I0929 13:14:45.962433  9926 net.cpp:94] Creating Layer conv1
I0929 13:14:45.962452  9926 net.cpp:428] conv1 <- data
I0929 13:14:45.962473  9926 net.cpp:402] conv1 -> conv1
I0929 13:14:45.967442  9926 net.cpp:144] Setting up conv1
I0929 13:14:45.967478  9926 net.cpp:151] Top shape: 100 20 24 24 (1152000)
I0929 13:14:45.967488  9926 net.cpp:159] Memory required for data: 4922800
I0929 13:14:45.967516  9926 layer_factory.hpp:77] Creating layer pool1
I0929 13:14:45.967542  9926 net.cpp:94] Creating Layer pool1
I0929 13:14:45.967551  9926 net.cpp:428] pool1 <- conv1
I0929 13:14:45.967563  9926 net.cpp:402] pool1 -> pool1
I0929 13:14:45.970166  9926 net.cpp:144] Setting up pool1
I0929 13:14:45.970188  9926 net.cpp:151] Top shape: 100 20 12 12 (288000)
I0929 13:14:45.970219  9926 net.cpp:159] Memory required for data: 6074800
I0929 13:14:45.970229  9926 layer_factory.hpp:77] Creating layer conv2
I0929 13:14:45.970265  9926 net.cpp:94] Creating Layer conv2
I0929 13:14:45.970283  9926 net.cpp:428] conv2 <- pool1
I0929 13:14:45.970310  9926 net.cpp:402] conv2 -> conv2
I0929 13:14:45.973176  9926 net.cpp:144] Setting up conv2
I0929 13:14:45.973197  9926 net.cpp:151] Top shape: 100 50 8 8 (320000)
I0929 13:14:45.973217  9926 net.cpp:159] Memory required for data: 7354800
I0929 13:14:45.973240  9926 layer_factory.hpp:77] Creating layer pool2
I0929 13:14:45.973268  9926 net.cpp:94] Creating Layer pool2
I0929 13:14:45.973278  9926 net.cpp:428] pool2 <- conv2
I0929 13:14:45.973291  9926 net.cpp:402] pool2 -> pool2
I0929 13:14:45.973588  9926 net.cpp:144] Setting up pool2
I0929 13:14:45.973616  9926 net.cpp:151] Top shape: 100 50 4 4 (80000)
I0929 13:14:45.973635  9926 net.cpp:159] Memory required for data: 7674800
I0929 13:14:45.973644  9926 layer_factory.hpp:77] Creating layer ip1
I0929 13:14:45.973659  9926 net.cpp:94] Creating Layer ip1
I0929 13:14:45.973667  9926 net.cpp:428] ip1 <- pool2
I0929 13:14:45.973680  9926 net.cpp:402] ip1 -> ip1
I0929 13:14:45.984200  9926 net.cpp:144] Setting up ip1
I0929 13:14:45.984243  9926 net.cpp:151] Top shape: 100 500 (50000)
I0929 13:14:45.984254  9926 net.cpp:159] Memory required for data: 7874800
I0929 13:14:45.984293  9926 layer_factory.hpp:77] Creating layer relu1
I0929 13:14:45.984319  9926 net.cpp:94] Creating Layer relu1
I0929 13:14:45.984328  9926 net.cpp:428] relu1 <- ip1
I0929 13:14:45.984343  9926 net.cpp:389] relu1 -> ip1 (in-place)
I0929 13:14:45.984355  9926 net.cpp:144] Setting up relu1
I0929 13:14:45.984366  9926 net.cpp:151] Top shape: 100 500 (50000)
I0929 13:14:45.984378  9926 net.cpp:159] Memory required for data: 8074800
I0929 13:14:45.984387  9926 layer_factory.hpp:77] Creating layer ip2
I0929 13:14:45.984416  9926 net.cpp:94] Creating Layer ip2
I0929 13:14:45.984434  9926 net.cpp:428] ip2 <- ip1
I0929 13:14:45.984447  9926 net.cpp:402] ip2 -> ip2
I0929 13:14:45.984872  9926 net.cpp:144] Setting up ip2
I0929 13:14:45.984899  9926 net.cpp:151] Top shape: 100 10 (1000)
I0929 13:14:45.984938  9926 net.cpp:159] Memory required for data: 8078800
I0929 13:14:45.984988  9926 layer_factory.hpp:77] Creating layer ip2_ip2_0_split
I0929 13:14:45.985018  9926 net.cpp:94] Creating Layer ip2_ip2_0_split
I0929 13:14:45.985060  9926 net.cpp:428] ip2_ip2_0_split <- ip2
I0929 13:14:45.985085  9926 net.cpp:402] ip2_ip2_0_split -> ip2_ip2_0_split_0
I0929 13:14:45.985101  9926 net.cpp:402] ip2_ip2_0_split -> ip2_ip2_0_split_1
I0929 13:14:45.985219  9926 net.cpp:144] Setting up ip2_ip2_0_split
I0929 13:14:45.985237  9926 net.cpp:151] Top shape: 100 10 (1000)
I0929 13:14:45.985249  9926 net.cpp:151] Top shape: 100 10 (1000)
I0929 13:14:45.985257  9926 net.cpp:159] Memory required for data: 8086800
I0929 13:14:45.985266  9926 layer_factory.hpp:77] Creating layer accuracy
I0929 13:14:45.985288  9926 net.cpp:94] Creating Layer accuracy
I0929 13:14:45.985298  9926 net.cpp:428] accuracy <- ip2_ip2_0_split_0
I0929 13:14:45.985308  9926 net.cpp:428] accuracy <- label_mnist_1_split_0
I0929 13:14:45.985319  9926 net.cpp:402] accuracy -> accuracy
…
